onnx/cresnet7_8_dense.onnx (onnx, 182628 bytes, 26 tensors)

conv1.weight f4 [8, 3, 3, 3]
0	0xbc0ddd93	-0.008658784
1	0xbe3a57ce	-0.18197557
2	0xbbe13d84	-0.0068737883
3	0xba5506f5	-0.0008126342
4	0xba9dfa2b	-0.0012052705
5	0xba939a9b	-0.0011261286
6	0xbc5db08e	-0.013530863
7	0xbe623a2f	-0.22092508
8	0xbc3a5d80	-0.011374831
9	0xba96c50f	-0.001150282
10	0xbdaa4cbc	-0.08315417
11	0xbaab049f	-0.0013047642
12	0xb9f8f7ba	-0.00047486817
13	0xbbcd9bbd	-0.006274669
14	0xba360ee7	-0.00069449696
15	0xbaca56f2	-0.0015437289
16	0xbdaac9db	-0.08339282
17	0xba8ecba5	-0.0010894431
18	0xba42da00	-0.0007432997
19	0x3b94ed7b	0.0045449114
20	0xba51965a	-0.00079951214
21	0x3d0fbcb4	0.03509207
22	0x3f80ea08	1.0071421
23	0x3d317ca9	0.043331776
24	0xb9a48f78	-0.0003138741
25	0x3d3d80cf	0.04626542
26	0x39d20214	0.0004005587
27	0xbcde7c1a	-0.027158786
28	0xbf334920	-0.70033455
29	0xbcd32ce8	-0.025778249
30	0xba158b09	-0.0005704617
31	0xba35ea06	-0.0006939474
32	0xb9d55992	-0.0004069326
33	0x3ce22dd3	0.027609741
34	0x3f383e9f	0.7197055
35	0x3cde939b	0.027169993
36	0xbb578820	-0.0032887533
37	0xbed492bc	-0.415182
38	0xbb836a01	-0.0040104394
39	0xb9c59cba	-0.00037691538
40	0xbb06b438	-0.0020554196
41	0xba6b1f84	-0.0008969235
42	0x3b75c9e8	0.0037504379
43	0x3ecc4965	0.39899746
44	0x3b3a3cf3	0.0028417676
45	0xbafb6896	-0.0019180949
46	0xbdde30f1	-0.108491786
47	0xbb2e192e	-0.0026565301
48	0xb9891c47	-0.00026151745
49	0xbc9e80ee	-0.019348588
50	0xbb130b2d	-0.0022437081
51	0x3b6cc65f	0.003612898
52	0x3dfdde02	0.1239586
53	0x3b2b328f	0.0026122665
54	0xbc06c7c1	-0.008226336
55	0xbe7804f4	-0.2422064
56	0xbc10fd10	-0.008849397
57	0xb99d36f6	-0.00029986323
58	0xba01a8f6	-0.00049461366
59	0xb9da3144	-0.00041616906
60	0xbc0c9458	-0.00858029
61	0xbe99a151	-0.30005887
62	0xbc0d401f	-0.008621245
63	0x3ade944e	0.0016981454
64	0x3d3adac4	0.045618787
65	0x3af5b90b	0.0018747164
66	0x3aedc0f0	0.0018139165
67	0x3c1cd1ef	0.009571536
68	0x3adf6607	0.0017043956
69	0x3b075446	0.0020649596
70	0x3d22b6ad	0.039724994
71	0x3b01bc77	0.0019796172
72	0x3b02972e	0.0019926536
73	0x3de52ddf	0.1119039
74	0x3b1920b9	0.0023365451
75	0x3c21bd8f	0.009871854
76	0x3f5ba41e	0.857973
77	0x3c245f67	0.010032511
78	0x3b353009	0.002764704
79	0x3df433b0	0.11923921
80	0x3b39e664	0.0028366083
81	0x3c9ff989	0.019528167
82	0x3f1ea551	0.61971
83	0x3cc0ac1a	0.023519564
84	0xb97f7b45	-0.00024364617
85	0x3a1e643e	0.0006042159
86	0x39e5396c	0.00043721066
87	0x3c84f22c	0.016228758
88	0x3f06ffb3	0.52733916
89	0x3cac378c	0.02102258
90	0xbba21eb2	-0.004947507
91	0xbeefb68f	-0.4681897
92	0xbb7a12ff	-0.0038158295
93	0xbb9a9a3b	-0.0047180927
94	0xbd221a20	-0.039575696
95	0xbb82c1cd	-0.003990388
96	0xbbaf6125	-0.0053521567
97	0xbefd46ed	-0.49468175
98	0xbb89f6f0	-0.0042103454
99	0xbad0cbd3	-0.0015929885
100	0xbd9dd03c	-0.07705733
101	0xbaeed347	-0.0018220925
102	0xbb7abe17	-0.0038260275
103	0xbe0b3198	-0.13593137
104	0xbb67999d	-0.0035339363
105	0xbb1eda7c	-0.0024239114
106	0xbd9ef642	-0.07761814
107	0xbb0ac3df	-0.0021173877
108	0xbbb73586	-0.0055910973
109	0xbe8f7137	-0.28016064
110	0xbc57fcde	-0.013182847
111	0x37b6738a	2.1749893e-05
112	0xb9acc5f6	-0.0003295389
113	0xb9f7ed3c	-0.00047288265
114	0xbc33a806	-0.010965353
115	0xbea76c1f	-0.32699677
116	0xbc396801	-0.0113163
117	0x3bc36950	0.005963482
118	0x3f1124d8	0.56696844
119	0x3b9bea80	0.004758179
120	0x3c237563	0.009976718
121	0x3e0d05bf	0.13771723
122	0x3c2a0753	0.010377723
123	0x3bd519db	0.0065033264
124	0x3f1f126a	0.6213747
125	0x3bfa3a54	0.007636348
126	0xbb541b37	-0.0032364854
127	0xbe43bfa4	-0.19116074
128	0xbb6764ad	-0.003530781
129	0xbc060de4	-0.008182023
130	0xbed3f3ed	-0.41397038
131	0xbbefbecd	-0.0073164464
132	0xbb57e4a0	-0.0032942668
133	0xbe46f5db	-0.19429724
134	0xbb2546fb	-0.002521931
135	0xbc62bfa3	-0.013839635
136	0xbed4b8cf	-0.41547248
137	0xbc5d7548	-0.013516732
138	0xba948ff0	-0.0011334401
139	0xbac7c0c3	-0.0015239943
140	0xbaa7ba6f	-0.001279665
141	0xbcadd831	-0.021221252
142	0xbf1857c6	-0.5950893
143	0xbcb780cf	-0.022400288
144	0xba77c7c4	-0.00094520696
145	0xbe308e77	-0.17241846
146	0xbac623c2	-0.0015116858
147	0xbad71679	-0.0016409896
148	0xbcdc4d0a	-0.026892204
149	0xbadde820	-0.001693014
150	0xbaf55714	-0.0018717968
151	0xbe79f6d5	-0.24410565
152	0xbac0df60	-0.0014715008
153	0xba60151b	-0.0008548067
154	0xbd023203	-0.031785976
155	0xba8a1267	-0.0010534049
156	0xbb3327cf	-0.002733696
157	0xbdea9b7b	-0.11455437
158	0xbb25ca6f	-0.0025297662
159	0xbae18605	-0.0017206079
160	0xbd3decb3	-0.046368312
161	0xba8bd83c	-0.0010669301
162	0x3c48532e	0.012226863
163	0x3ec154ea	0.37760097
164	0x3c6815ac	0.014165323
165	0x3a1c2018	0.000595571
166	0x3accf731	0.0015637634
167	0x3ab082f9	0.0013466767
168	0x3ca91739	0.020640956
169	0x3f0bf010	0.5466318
170	0x3cae601d	0.021286065
171	0xb9a1951f	-0.00030819417
172	0x3df74372	0.12073411
173	0x3a61c362	0.0008612183
174	0x39f4b06a	0.00046670745
175	0x3c55c349	0.013047048
176	0x3abed51e	0.0014559363
177	0x3a5e0823	0.00084698404
178	0x3e3ab123	0.18231635
179	0x3abb9b11	0.0014313181
180	0xb93bf1e4	-0.00017923821
181	0x3d05d83d	0.032676924
182	0x3a3f52e1	0.00072984217
183	0x3b821c90	0.00397069
184	0x3e0dd3bf	0.13850306
185	0x3bb67f1e	0.005569353
186	0x38a69b79	7.944456e-05
187	0x3d26db53	0.040736508
188	0x39fbe5e2	0.00048045727
189	0x3ce04067	0.02737446
190	0x3f3910aa	0.7229105
191	0x3cc54331	0.02407989
192	0x39ab1c64	0.00032636814
193	0xb977cbf8	-0.0002363174
194	0xb9bd7014	-0.00036132394
195	0xbca874f0	-0.020563573
196	0xbf2fc741	-0.6866341
197	0xbcd5194d	-0.02601304
198	0x3b2d6921	0.0026460367
199	0x3ec74101	0.38916782
200	0x3b3747ff	0.0027966497
201	0x39ba3083	0.0003551283
202	0x3b0a461b	0.0021098915
203	0xb97999d9	-0.00023803803
204	0xbb47566f	-0.0030416509
205	0xbee85125	-0.45374408
206	0xbb55db82	-0.0032632058
207	0x3b3dadf1	0.0028942788
208	0x3e0c6455	0.13710149
209	0x3b4c607b	0.0031185437
210	0x39bf4304	0.0003648029
211	0x3cd32067	0.025772287
212	0xba3018e3	-0.00067175756
213	0xbb026572	-0.0019896892
214	0xbde8711e	-0.113497004
215	0xbb094d66	-0.0020950674

conv1.bias f4 [8]
0	0x3da33359	0.07968778
1	0xbdfdf6c6	-0.12400584
2	0x3f457b5c	0.77141356
3	0xbe0effdb	-0.13964789
4	0xbd194ee4	-0.03742875
5	0xbeb30fe4	-0.3497306
6	0x3ea96537	0.33085033
7	0xbe50e727	-0.20400678

layer1.0.conv1.weight f4 [16, 8, 3, 3]
0	0xbcf8194b	-0.030285498
1	0xbd5d2ae3	-0.053995978
2	0xbd56271a	-0.052283384
3	0xbdc22378	-0.094794214
4	0xbdebd1be	-0.115146145
5	0xbdf77b4b	-0.12084063
6	0xbdbb5f19	-0.09148998
7	0xbde70241	-0.11279727
8	0xbd8da8d2	-0.069169655
9	0x3c5f399b	0.013624574
10	0x3c819e4c	0.015822552
11	0x3c5171ee	0.012783511
12	0xbca1bcd6	-0.019743364
13	0x3ccc2565	0.024920175
14	0x3d9267fa	0.07148738
15	0x3cdd243e	0.02699482
16	0x3d7e3f97	0.062072363
17	0x3d5e7f87	0.05432084
18	0x3d0aac3b	0.033855658
19	0x3d1dc7c2	0.038520582
20	0x3c0e5e28	0.008689441
21	0x3bc4170b	0.0059841922
22	0xbdc5f2d2	-0.09665455
23	0xbd7ce3b6	-0.0617406
24	0xbd498b0e	-0.04920488
25	0xbdb9f30d	-0.090795614
26	0xbd850016	-0.06494157
27	0xbc202048	-0.009773321
28	0xbd852c9c	-0.06502649
29	0xbd7053e5	-0.058673758
30	0xbce30cd2	-0.027716074
31	0xbdcd9e19	-0.1003992
32	0xbd7d6716	-0.06186589
33	0xbcde331d	-0.027123982
34	0xbd6b1195	-0.057389814
35	0xbd3a6526	-0.04550662
36	0x3dc53a75	0.096302904
37	0x3e254374	0.16139013
38	0x3dc504c0	0.096200466
39	0x3e169a51	0.14707305
40	0x3e86c9f2	0.26325947
41	0x3e164439	0.14674462
42	0x3e04fdad	0.12987395
43	0x3e66bb3b	0.2253236
44	0x3e0f7712	0.14010265
45	0xba7bd1ac	-0.00096061337
46	0xbc0e1b5c	-0.008673515
47	0x3c4ab1be	0.012371479
48	0xbd751b4b	-0.05984048
49	0xbd9d8ea0	-0.07693219
50	0xbd89c68d	-0.06727324
51	0xbcb8f1f0	-0.022576302
52	0xbdedffe5	-0.11621074
53	0xbd804941	-0.06263972
54	0xbd1d6c28	-0.038433224
55	0xbd4a378b	-0.049369376
56	0xbd858d95	-0.06521145
57	0xbabbbd16	-0.001432332
58	0x3d32463f	0.043524023
59	0x3c4c56a9	0.012471833
60	0x3c9260bc	0.017868392
61	0x3db04272	0.086064234
62	0x3d733038	0.059372157
63	0x3c59f4ce	0.013302995
64	0x3cff388b	0.031154891
65	0x3cbab2b8	0.022790298
66	0x3d8d879e	0.069106326
67	0x3d3fb4aa	0.046803154
68	0x3c5fd44a	0.0136614535
69	0x3d43c852	0.047798462
70	0x3d07eed9	0.033186767
71	0x3c325c52	0.010886269
72	0x3d393573	0.04521699
73	0x3cd9a3fa	0.026567448
74	0xbd0af68a	-0.033926524
75	0x3e50a504	0.20375448
76	0x3b99e639	0.004696634
77	0xbe643abd	-0.22288032
78	0x3e08d323	0.13361792
79	0x3d47cb5a	0.048777916
80	0xbe2ea52a	-0.17055193
81	0x3dfa16df	0.122113936
82	0xbba97526	-0.005171436
83	0xbd9fa8e9	-0.07795889
84	0x3dd0f6fb	0.10203358
85	0x3dac5f93	0.08416667
86	0xbddbd52e	-0.1073402
87	0xbd095e7b	-0.03353737
88	0x3d44c352	0.048037834
89	0x3d37418b	0.04474024
90	0x3d24d260	0.04023969
91	0xbd3e0beb	-0.046398085
92	0xbc4f767c	-0.012662526
93	0x3e3c859b	0.18410341
94	0xb9e785d4	-0.00044159463
95	0xbe532f9f	-0.20623635
96	0x3e0fb211	0.1403277
97	0x3c945ffc	0.018112175
98	0xbe3af9ca	-0.1825935
99	0xbc0784f6	-0.008271446
100	0x3c81639a	0.015794564
101	0x3cf13704	0.029445179
102	0x3bcaf2b4	0.0061934832
103	0xbb156306	-0.0022794618
104	0x3c973ea9	0.018462496
105	0x3c2a578f	0.010396852
106	0x3c513f0e	0.012771381
107	0x3c422a86	0.011850959
108	0x3c95bada	0.018277574
109	0xbbb8bf69	-0.0056380522
110	0xbb7266cb	-0.003698754
111	0x3d5ab0c9	0.05339125
112	0xbbef7cf3	-0.0073085963
113	0xbd9217fa	-0.071334794
114	0x3d2ce239	0.04220793
115	0xbc87ab4f	-0.016561178
116	0xbd8a1eb4	-0.067441374
117	0xbe0923a3	-0.133925
118	0x3d87db1e	0.0663359
119	0x3de0b010	0.10971081
120	0xbebb8f61	-0.36632827
121	0xbd05430b	-0.03253464
122	0x3eaf37c5	0.34222236
123	0xbeaee143	-0.34156236
124	0x3c854170	0.016266555
125	0x3eb29644	0.3488027
126	0x3e48b3f9	0.19599904
127	0x3d208b53	0.03919537
128	0xbe144c91	-0.14482333
129	0x3ebcf26f	0.36903712
130	0xbc37690d	-0.01119448
131	0xbee37123	-0.44422254
132	0x3ea58dec	0.3233484
133	0x3d22782d	0.03966539
134	0xbebd0b65	-0.36922756
135	0xbd97f661	-0.0742004
136	0x3bd3937c	0.0064567905
137	0x3d8db891	0.06919969
138	0xbce14cc0	-0.027502418
139	0xbcdd3afb	-0.027005663
140	0x3d9dffca	0.077148035
141	0x3d8c1b48	0.06841141
142	0x3c9f49c5	0.019444356
143	0xbd66367a	-0.056204297
144	0x3d9af9b3	0.075671576
145	0x3d8905ae	0.066905364
146	0x3c42eee3	0.011897775
147	0x3e422db7	0.18962751
148	0x3e2b9a5c	0.16758102
149	0x3d9300f4	0.07177916
150	0xbde3e64c	-0.1112791
151	0xbe062b47	-0.13102446
152	0x3cdcdee0	0.026961744
153	0x3dce7ed8	0.10082787
154	0x3d6d1178	0.057877988
155	0x3bc11b97	0.0058931815
156	0x3cd47de4	0.025938936
157	0x3d4f832c	0.050662205
158	0x3dd0c0cf	0.10193025
159	0x3e142863	0.14468531
160	0x3e2f7ecc	0.17138213
161	0x3de65ccc	0.11248168
162	0x3d41aea2	0.047285683
163	0x3d8c9550	0.068644166
164	0xbb37a28e	-0.0028020474
165	0x3cbf2528	0.023333147
166	0x3cd126fd	0.025531286
167	0xbd48f4b4	-0.049061492
168	0xbe22e081	-0.15905954
169	0xbe51284e	-0.20425531
170	0xbceced19	-0.02892165
171	0x3d1c0147	0.038087156
172	0x3d32a948	0.04361847
173	0x3c9f8b09	0.019475477
174	0xbb08ee80	-0.002089411
175	0x3c86be41	0.016448142
176	0x3b6f63ca	0.0036527985
177	0xbd24cb04	-0.040232673
178	0xbd3accfa	-0.045605637
179	0xbd05d216	-0.032671057
180	0x3ceaebfc	0.02867698
181	0x3cbcdc22	0.023054186
182	0xbb5f038d	-0.0034029216
183	0x38dfa8ad	0.00010664887
184	0xba3700b3	-0.0006981
185	0xbc3b8ba6	-0.011446869
186	0xbd71b296	-0.059008203
187	0xbda3f2e8	-0.08005315
188	0xbc89e01b	-0.016830495
189	0xbe36c11e	-0.17847106
190	0xbe83619b	-0.25660405
191	0xbdcd7420	-0.10031915
192	0x3cb50081	0.022094967
193	0xbda5d285	-0.08096794
194	0x3cb727a6	0.022357773
195	0x3e568dbb	0.20952503
196	0x3e94d28d	0.29066887
197	0x3d753839	0.05986807
198	0x3e346d4b	0.17619817
199	0x3e59c0c7	0.21264945
200	0x3ceeb6e7	0.029139949
201	0x3da54535	0.08069841
202	0x3dacd69a	0.084393695
203	0x3d3413a4	0.043964043
204	0xbe87dc12	-0.26535088
205	0xbeb67940	-0.3563938
206	0x3bf1ffda	0.007385236
207	0xbaeb2a1c	-0.0017941627
208	0x3b3de442	0.0028975164
209	0x3cb39e22	0.02192599
210	0x3e16b0c5	0.1471587
211	0x3e3a802c	0.18212956
212	0x3cddfd8f	0.027098445
213	0x3e44c778	0.19216716
214	0x3e4a144d	0.19734307
215	0x3dcc2f92	0.09970011
216	0x3ce2db1f	0.027692376
217	0x3bbc9a0d	0.005755669
218	0xbc080c87	-0.008303768
219	0x3dddce3d	0.108303525
220	0x3dee07ba	0.116225675
221	0x3d9a4477	0.0753259
222	0x3d9db786	0.0770102
223	0x3dd008da	0.10157938
224	0x3db34547	0.08753448
225	0xbca1607a	-0.019699324
226	0xbcfd02cc	-0.030885123
227	0xbd1d0bed	-0.03834145
228	0x3bdcb476	0.00673538
229	0xbca36030	-0.019943327
230	0x3c2d707e	0.010585902
231	0x3d1b17fb	0.037864666
232	0x3cc7a9b4	0.024372913
233	0x3cf059bd	0.029339666
234	0x3da334e5	0.07969073
235	0x3dc05921	0.09392
236	0x3d3f1b62	0.046656974
237	0x3e117fcb	0.14208905
238	0x3e81dd87	0.25364324
239	0x3de6ff77	0.11279195
240	0x3d8d62e3	0.06903627
241	0x3e382bf2	0.17985514
242	0x3e0337a2	0.12814191
243	0xbdd3bc34	-0.10338631
244	0xbdcb95ac	-0.09940657
245	0xbd8ef34f	-0.06980001
246	0xbc50e352	-0.01274951
247	0x3bad9b75	0.005298073
248	0x3c380f85	0.011234169
249	0x3d782be8	0.060588747
250	0x3d94d28a	0.0726672
251	0x3d8b6d38	0.06807941
252	0xbbd2c0cc	-0.0064316746
253	0xbc379097	-0.0112039065
254	0xbc0675a2	-0.008206757
255	0x39a5d756	0.0003163169

layer1.0.conv1.bias f4 [16]
0	0x3f50dacd	0.81583863
1	0xbccbbd9e	-0.02487069
2	0xbbb131a7	-0.0054075303
3	0xbcc69958	-0.024243042
4	0xbd8171f7	-0.06320565
5	0xbc389a62	-0.0112672765
6	0xbdc4eaba	-0.09615083
7	0x3d8e156f	0.06937682
8	0x3eb9c5fb	0.3628386
9	0xbda2b209	-0.07944114
10	0xbf1261dc	-0.5718057
11	0x3c6e59dd	0.014547792
12	0xbeb21862	-0.34784228
13	0x3f1ba4fb	0.60798615
14	0xbe5146e8	-0.20437205
15	0xbdcc393e	-0.099718556

layer1.0.conv2.weight f4 [16, 16, 3, 3]
0	0x346c1298	2.1985977e-07
1	0x35bd24db	1.4092324e-06
2	0x3593be84	1.1007801e-06
3	0xb6381bf0	-2.7434398e-06
4	0x33c46410	9.1451625e-08
5	0xb5f3a62b	-1.8153272e-06
6	0xb3b19149	-8.268632e-08
7	0xb51a2840	-5.742804e-07
8	0xb42363db	-1.5216885e-07
9	0xb6037b38	-1.9592244e-06
10	0xb61b2508	-2.3118355e-06
11	0xb5706c2d	-8.9564384e-07
12	0x310ae7d5	2.0213424e-09
13	0xb5a6d534	-1.2430014e-06
14	0x3459f6a1	2.0299423e-07
15	0xb63f9d46	-2.8552763e-06
16	0xb6069451	-2.0053888e-06
17	0xb5e093da	-1.6732331e-06
18	0xb56d6ab8	-8.8444676e-07
19	0xb59f2796	-1.1857944e-06
20	0xb5af47a9	-1.3059372e-06
21	0xb59d99c6	-1.1742165e-06
22	0xb58783a7	-1.00966e-06
23	0xb5420d53	-7.229002e-07
24	0xb5adeb23	-1.2957938e-06
25	0xb65c8ccf	-3.2864516e-06
26	0xb5f780e3	-1.8440445e-06
27	0xb5aa6935	-1.2696606e-06
28	0xb5ea6009	-1.7462309e-06
29	0xb67122e4	-3.5932107e-06
30	0xb60d35b9	-2.1041908e-06
31	0xb5e8fdb4	-1.7359184e-06
32	0xb6626829	-3.3737253e-06
33	0xb60145fc	-1.9263234e-06
34	0x3485738f	2.485726e-07
35	0xb5743435	-9.0973055e-07
36	0xb6262ee2	-2.4763217e-06
37	0xb654ead4	-3.172715e-06
38	0xb643b2fc	-2.9161447e-06
39	0xb60228ce	-1.939526e-06
40	0xb4c9d2bc	-3.7592497e-07
41	0xb61dbb2c	-2.3503771e-06
42	0xb5ac4cef	-1.2837389e-06
43	0xb5a01ba3	-1.1928972e-06
44	0xb51516e6	-5.5540147e-07
45	0xb62af5af	-2.547498e-06
46	0xb64d8f26	-3.0630704e-06
47	0x359fef7a	1.191612e-06
48	0xb5def446	-1.6611382e-06
49	0xb586865f	-1.0022885e-06
50	0xb52f0634	-6.5201607e-07
51	0xb629163e	-2.519591e-06
52	0xb4eaf14c	-4.3761463e-07
53	0x34608690	2.0910579e-07
54	0xb5d4f9d7	-1.5867944e-06
55	0xb57a3b61	-9.3218665e-07
56	0xb60d69e0	-2.1072265e-06
57	0xb65d1309	-3.2942646e-06
58	0x34ed0af5	4.4152662e-07
59	0x35c6a5e6	1.4800432e-06
60	0x352377e3	6.089669e-07
61	0xb5f86b96	-1.8508752e-06
62	0x34c6a584	3.7000802e-07
63	0xb6345686	-2.6872453e-06
64	0xb5845dbc	-9.862047e-07
65	0xb54514ae	-7.341831e-07
66	0xb5c10ce7	-1.4383376e-06
67	0x33945670	6.90751e-08
68	0xb65ac0ef	-3.2596834e-06
69	0xb5d1f670	-1.5643436e-06
70	0xb5c776d8	-1.4861243e-06
71	0xb63f560a	-2.85113e-06
72	0xb5c5cbde	-1.4736977e-06
73	0xb63ac07f	-2.7828207e-06
74	0x35612025	8.386581e-07
75	0x35523cc9	7.831955e-07
76	0x35ede182	1.7723507e-06
77	0xb5d69bb8	-1.5989563e-06
78	0xb537716d	-6.833787e-07
79	0xb49b9ddf	-2.8985866e-07
80	0x35f27abf	1.8066129e-06
81	0x3576cfd8	9.1944594e-07
82	0xb603862d	-1.9598622e-06
83	0xb606981e	-2.00561e-06
84	0xb637b8c5	-2.7376675e-06
85	0xb5d4aeed	-1.5846141e-06
86	0x3504b98c	4.944384e-07
87	0x3521e20d	6.030612e-07
88	0x33e39766	1.05980504e-07
89	0xb557cdca	-8.0393204e-07
90	0xb52d3a59	-6.453243e-07
91	0xb5ffdb9a	-1.9062893e-06
92	0x3622c7d6	2.42562e-06
93	0x35884963	1.0154148e-06
94	0x348fe7c5	2.680446e-07
95	0xb6145d4c	-2.2108024e-06
96	0x35e91ac4	1.7367643e-06
97	0xb31af48a	-3.6078326e-08
98	0x35d479ec	1.5830715e-06
99	0x3525aba6	6.171707e-07
100	0x35a2256b	1.2080831e-06
101	0xb62bac65	-2.5581332e-06
102	0xb60c15a8	-2.0874231e-06
103	0x355c7d40	8.213865e-07
104	0xb5dc6c9b	-1.6422886e-06
105	0xb685ae59	-3.9840056e-06
106	0x36273be9	2.4919811e-06
107	0xb434f647	-1.6853402e-07
108	0x36126a9e	2.1817755e-06
109	0xb608d886	-2.0391612e-06
110	0x357603da	9.1647746e-07
111	0xb583e46a	-9.826738e-07
112	0xb592eec6	-1.094734e-06
113	0xb5138701	-5.4958224e-07
114	0xb5aa5b8c	-1.2692631e-06
115	0x35c6bdce	1.480739e-06
116	0xb521f33b	-6.033112e-07
117	0x3598ee0f	1.1394167e-06
118	0xb487b328	-2.5276063e-07
119	0xb59eab61	-1.1821795e-06
120	0xb6204963	-2.3884575e-06
121	0xb660630d	-3.3436256e-06
122	0xb5d64d1b	-1.5966683e-06
123	0xb6271d4f	-2.4902e-06
124	0xb4f8c40c	-4.6336243e-07
125	0xb487c21e	-2.5286948e-07
126	0xb5218523	-6.0170913e-07
127	0xb626e1cb	-2.4867356e-06
128	0x3409d473	1.2836408e-07
129	0x35ace430	1.288141e-06
130	0xb57ae7a3	-9.3469333e-07
131	0xb58d2506	-1.0516094e-06
132	0xb68ddf39	-4.228114e-06
133	0x35c55ddc	1.470496e-06
134	0xb63b31f5	-2.789425e-06
135	0xb5aae1b3	-1.2731674e-06
136	0xb5a3934a	-1.2187313e-06
137	0xb5c8f848	-1.497342e-06
138	0xb4101094	-1.3417076e-07
139	0xb641aa6b	-2.8858437e-06
140	0xb4e61f44	-4.2863587e-07
141	0xb5ed152b	-1.7664037e-06
142	0xb62afb62	-2.5478298e-06
143	0xb661d291	-3.3650178e-06
144	0x3d34fc7c	0.0441861
145	0x3d4a1648	0.049337655
146	0x3dab086c	0.08351216
147	0x3c34c01e	0.011032132
148	0xbbda7627	-0.006666917
149	0x3d716b01	0.058939938
150	0xbc9223b0	-0.017839283
151	0xbb39ca8e	-0.0028349492
152	0x3d35e9ec	0.04441254
153	0x3b9b1e2c	0.0047338214
154	0x3d1c7514	0.038197592
155	0x3cb04ce6	0.021521043
156	0x3c1b29ac	0.009470385
157	0x3d696f87	0.056991126
158	0x3d1feac2	0.039042242
159	0x3d9ce6c7	0.07661205
160	0x3e3d810a	0.18506256
161	0x3dc47641	0.09592868
162	0xbbfaa8d4	-0.0076495204
163	0xbc77ed8c	-0.015132319
164	0xbccbf5db	-0.024897506
165	0xbc4e8f69	-0.012607434
166	0xbdba67bf	-0.09101819
167	0xbde390f8	-0.11111635
168	0x3c12188b	0.008916984
169	0xbda387af	-0.07984864
170	0xbddf1338	-0.108923376
171	0xbd57036e	-0.052493505
172	0x3da0043b	0.07813307
173	0x3df06d0c	0.11739549
174	0x3c0a08d9	0.008424961
175	0x3e2403b1	0.16017033
176	0x3ea8722d	0.3289961
177	0xbdc8c280	-0.09802723
178	0x3e5d5b91	0.21616961
179	0x3e949fe1	0.29028228
180	0xbbe292b1	-0.0069144596
181	0x3c805646	0.015666138
182	0x3be4fcc2	0.006988139
183	0x3d053cf2	0.032528825
184	0x3ca9fec2	0.02075136
185	0xbcc50a08	-0.024052635
186	0xbc07214d	-0.008247686
187	0xbdb8bdd9	-0.090205856
188	0xbd9573ce	-0.072974786
189	0x3c58a51a	0.013222957
190	0x3c9a87ee	0.018863644
191	0x3c4c5f9f	0.01247397
192	0x3d28653e	0.041112177
193	0xbcdb8dfd	-0.026801104
194	0x3c695760	0.014242023
195	0x3cc7ccce	0.02438965
196	0xbb910518	-0.004425656
197	0xbb7e588a	-0.0038810098
198	0xbcc2165a	-0.023692299
199	0x3b614385	0.003437252
200	0x3aa8369a	0.0012833655
201	0xbd246b43	-0.040141355
202	0x3d629474	0.055317357
203	0x3cd0e473	0.025499558
204	0x3dca42aa	0.098759964
205	0x3e27c4f9	0.16383733
206	0x3dacdaa5	0.08440141
207	0xbca71a0d	-0.020398164
208	0x3d3276ba	0.043570258
209	0xbc0144bc	-0.007889923
210	0xbbac8752	-0.005265155
211	0x3bb7a7de	0.005604728
212	0xbd0b0be3	-0.033946883
213	0x3cbe2f4c	0.023215912
214	0xbd854c92	-0.06508745
215	0xbd80329b	-0.06259652
216	0x3ce99e44	0.02851785
217	0x3da1cf8e	0.07900916
218	0x3d285b61	0.04110277
219	0xbb68a536	-0.0035498864
220	0x3e39cdf7	0.18144976
221	0x3cd2fe05	0.025755892
222	0xbcf68280	-0.030091524
223	0x3d30a23a	0.04312346
224	0x3c52ff36	0.01287823
225	0xbd091dea	-0.033475794
226	0x3cbe554b	0.02323403
227	0x3b1d889d	0.0024037727
228	0x3bc4efa4	0.0060100127
229	0x3df6eadf	0.12056517
230	0x3d46cc63	0.048534762
231	0x3b997d04	0.0046840925
232	0x3d9a8aaa	0.07545979
233	0x3d49e179	0.049287293
234	0xbd3e3978	-0.046441525
235	0xbd76200b	-0.060089152
236	0xbcc27898	-0.023739144
237	0x3dcb8c86	0.09938912
238	0x3dd3b5a6	0.10337381
239	0x3e341570	0.17586303
240	0x38b2eb6f	8.531554e-05
241	0xbcc9254d	-0.02455392
242	0x3d4715eb	0.048604887
243	0xbd8b4224	-0.06799725
244	0xbb903dc0	-0.0044018924
245	0xbcf788bf	-0.030216573
246	0xbc998538	-0.018740281
247	0xbba05238	-0.0048926137
248	0xbcde12af	-0.027108518
249	0xbcb57e77	-0.02215503
250	0xbe129ce0	-0.14317656
251	0xbde41086	-0.11135964
252	0x3c71fe33	0.0147700785
253	0x3d147e0d	0.036253024
254	0x3d7e36c2	0.06206394
255	0x3dabe745	0.083937205

layer1.0.conv2.bias f4 [16]
0	0xb6a4abd2	-4.9075834e-06
1	0xbcd90a75	-0.026494244
2	0x3aec56b3	0.001803121
3	0x3f3f241e	0.74664485
4	0x3db944db	0.09046336
5	0x3ed1809d	0.40918437
6	0xb7ddaa4a	-2.642455e-05
7	0x3e98d4c4	0.29849827
8	0xbc83aa9b	-0.016072562
9	0x3f28ab73	0.6588661
10	0x3ea3aa3b	0.31965813
11	0xbd1086bd	-0.035284746
12	0x3d10fdd9	0.035398338
13	0x3d1358e3	0.03597344
14	0x3cd17b4a	0.025571484
15	0xb7e33b43	-2.7088105e-05

layer1.0.shortcut.0.weight f4 [16, 8, 1, 1]
0	0x36a53051	4.923008e-06
1	0xb738cf1d	-1.1015477e-05
2	0x3512727b	5.455583e-07
3	0x3622c480	2.425426e-06
4	0xb6b72b18	-5.4588418e-06
5	0x35354b5a	6.7537405e-07
6	0xb7210781	-9.598095e-06
7	0xb6955a0b	-4.4510284e-06
8	0x3deb2909	0.11482436
9	0x3cf0837f	0.029359577
10	0x3def2033	0.116760634
11	0x3c02647b	0.007958527
12	0x3d4b638b	0.04965548
13	0x3d4da3c7	0.05020502
14	0x3d8775fc	0.066143006
15	0xbb886a3a	-0.004163054
16	0xbc3c2084	-0.011482362
17	0x3ba97414	0.0051713083
18	0x3cca9ec8	0.024733916
19	0xbd112ba8	-0.035442024
20	0xbcce958c	-0.025217794
21	0xbd35c749	-0.044379506
22	0x3c03300b	0.00800706
23	0xbd02f5b5	-0.031972606
24	0x3d866575	0.0656232
25	0xbd5f9925	-0.05458941
26	0x3dfed13e	0.124422535
27	0xbd939a32	-0.07207145
28	0xbcc46af7	-0.023976786
29	0xbe6dcb19	-0.23222007
30	0x3dfcefb9	0.12350411
31	0xbc142208	-0.009041317
32	0x3ec1d72d	0.3785948
33	0x3d26c5e5	0.04071607
34	0x3e0e9c9f	0.13926934
35	0xbd141b15	-0.03615864
36	0x3c9c707c	0.019096605
37	0xbeb23617	-0.34806892
38	0x3f132688	0.5748067
39	0x3dc76f3c	0.09738013
40	0xbdea107a	-0.11428924
41	0x3cbf0ce0	0.023321569
42	0x3d04402c	0.03228776
43	0xbc3057a4	-0.010763083
44	0x3d82d04c	0.06387386
45	0xbe0677e8	-0.13131678
46	0x3cb41799	0.021983908
47	0x3bf65753	0.007517734
48	0xb6c22ebf	-5.7870925e-06
49	0x361c1edd	2.3263776e-06
50	0xb6a93045	-5.042212e-06
51	0x36440a38	2.9212224e-06
52	0x36b8453a	5.4916864e-06
53	0xb6e036cc	-6.6820994e-06
54	0xb72a3652	-1.0145437e-05
55	0xb5949147	-1.106914e-06
56	0xba93c901	-0.0011275114
57	0x3d068f8b	0.032851737
58	0x3d9b2d85	0.075770415
59	0x3d174a60	0.036936164
60	0xbb96a361	-0.004597113
61	0xbdbd131d	-0.09232161
62	0x3e180290	0.14844728
63	0x3c3af039	0.011409813
64	0xbc644cf4	-0.013934363
65	0x3cb0e33f	0.021592734
66	0xbd38d0ef	-0.04512113
67	0x3d87ca3c	0.0663037
68	0x3c09f4a7	0.008420146
69	0x3ddc27ca	0.10749777
70	0xbe1c3175	-0.15253241
71	0xbdaaaf68	-0.08334237
72	0xbe023d13	-0.1271861
73	0xbd186252	-0.03720314
74	0xbe50a275	-0.20374472
75	0x3ac07dbe	0.0014685912
76	0xbd3f8eea	-0.046767153
77	0x3ef485aa	0.47758228
78	0xbeab5c71	-0.33468965
79	0xbd9ac8ca	-0.07557829
80	0xbdcaa768	-0.098952115
81	0xbde90711	-0.11378301
82	0xbdfd2e38	-0.12362331
83	0xbda14659	-0.07874746
84	0xbd82a7fa	-0.06379695
85	0x3ecd56bf	0.40105245
86	0xbe247ad5	-0.16062482
87	0xbcafcb31	-0.021459194
88	0xbd28b108	-0.041184455
89	0x3de42a38	0.11140865
90	0xbd71cbf5	-0.0590324
91	0x3c8e4fea	0.01737209
92	0xbcdd5aef	-0.0270209
93	0x3dbfb6da	0.09361048
94	0xbe313525	-0.1730543
95	0x3d2d64ca	0.042332448
96	0x3d989c03	0.07451632
97	0x3da3d5d8	0.07999772
98	0xbd12fc59	-0.03588519
99	0xbc785e44	-0.015159193
100	0xbd3f7b65	-0.046748538
101	0x3d56963c	0.05238937
102	0xbd4505d6	-0.04810127
103	0xbd92bb15	-0.07164589
104	0xbdab2a8c	-0.083577245
105	0x3d312d8e	0.043256335
106	0xbda720a8	-0.081605256
107	0x3c558926	0.013033187
108	0xbab7ffe5	-0.0014038055
109	0x3eaa8b61	0.33309463
110	0xbe4bcf75	-0.19903357
111	0x3c73a487	0.014870769
112	0x3da7dba2	0.081961885
113	0xbd4dab73	-0.050212335
114	0x3b9cefa7	0.004789311
115	0xbbcfee67	-0.0063455584
116	0x3b46e573	0.0030349165
117	0xbbf86455	-0.00758032
118	0x3d34fe2e	0.044187717
119	0x3da7e11b	0.08197232
120	0xb729716f	-1.0099596e-05
121	0xb6ec44e3	-7.0413676e-06
122	0xb7b98778	-2.2116801e-05
123	0xb780d9ba	-1.5360176e-05
124	0x34aaf554	3.1843467e-07
125	0xb791741f	-1.733942e-05
126	0xb78d69b2	-1.6857728e-05
127	0xb6dd8706	-6.602032e-06

layer1.0.shortcut.0.bias f4 [16]
0	0xb775aea2	-1.4643798e-05
1	0xbcd91cd6	-0.026503008
2	0x3aec5cdb	0.0018033044
3	0x3f3f24c7	0.7466549
4	0x3db94629	0.09046585
5	0x3ed18107	0.40918753
6	0xb7ed1524	-2.8262446e-05
7	0x3e98d64b	0.29850993
8	0xbc83af0a	-0.016074676
9	0x3f28abb4	0.65887
10	0x3ea3a9fb	0.31965622
11	0xbd108707	-0.035285022
12	0x3d1103f7	0.03540417
13	0x3d135fff	0.03598022
14	0x3cd189c5	0.025578389
15	0xb7ec76fe	-2.8188802e-05

layer1.1.conv1.weight f4 [16, 16, 3, 3]
0	0x35902998	1.0740941e-06
1	0xb55b834b	-8.1774914e-07
2	0x35f0e408	1.7947759e-06
3	0x35412ce3	7.196342e-07
4	0x3605c893	1.9935294e-06
5	0xb4f4ed12	-4.5621033e-07
6	0xb612b3c0	-2.1860324e-06
7	0x3515a84c	5.575173e-07
8	0x3591c996	1.0862011e-06
9	0xbd794aab	-0.060862225
10	0xbdd571d6	-0.10422103
11	0x3e2a8a91	0.16654421
12	0xbd823855	-0.06358401
13	0xbde9f178	-0.1142301
14	0x3e20885c	0.15677017
15	0x3cc69767	0.024242116
16	0xbdaa1cb9	-0.0830626
17	0x3d31b69a	0.043387033
18	0x3d096151	0.033540074
19	0xbd8d1510	-0.06888783
20	0x3d86333e	0.065527424
21	0x3d67875b	0.05652557
22	0xbeaff864	-0.34369195
23	0x3e4a9434	0.19783098
24	0x3d8f5b79	0.06999869
25	0xbe1631a4	-0.14667374
26	0x3e193e50	0.14965177
27	0xbd553856	-0.05205568
28	0xbd35da64	-0.044397727
29	0x3d19b34f	0.037524518
30	0x3dba3f7a	0.090941384
31	0xbe73015b	-0.23730986
32	0x3e6d7ac2	0.2319136
33	0x3dbe7ade	0.09300779
34	0xbe9d6a93	-0.30745372
35	0x3e4a3753	0.19747667
36	0x3d804faf	0.062651984
37	0x3d2b7728	0.041861683
38	0x3cbc041d	0.02295118
39	0x3db1237b	0.086493455
40	0xbf094174	-0.536155
41	0x3eba084e	0.3633446
42	0x3d3979d0	0.045282185
43	0xbecca560	-0.3996992
44	0x3eaa4b55	0.332606
45	0xbc6edd94	-0.0145791955
46	0xbd63786c	-0.055534765
47	0x3d5203af	0.051273044
48	0xbd9caebc	-0.076505154
49	0xbdfcf5c7	-0.12351566
50	0x3dfd1fc0	0.123595715
51	0x3cc505a4	0.024050541
52	0xbd61b6c2	-0.055105932
53	0x3e025cc3	0.12730698
54	0x35305501	6.5688806e-07
55	0x35b09f1f	1.3159332e-06
56	0x3636849a	2.7197298e-06
57	0xb57e2374	-9.4673965e-07
58	0xb5a31c4a	-1.215268e-06
59	0x35f46300	1.820823e-06
60	0xb608a4ba	-2.0361463e-06
61	0xb68d3ed0	-4.20944e-06
62	0xb65b50a9	-3.2680493e-06
63	0xbde4d62b	-0.11173662
64	0xbcd1fb1e	-0.025632437
65	0xbdbd9234	-0.09256402
66	0x3e19bbc0	0.15013027
67	0x3dfc2905	0.12312511
68	0xbcac454b	-0.021029135
69	0xbd55fb6c	-0.052241728
70	0x3d99c713	0.075086735
71	0xbdd8a599	-0.1057846
72	0xbd63f0f2	-0.055649705
73	0xbcba47dc	-0.022739343
74	0xbdcf68eb	-0.101274334
75	0x3e1223a7	0.14271413
76	0xbe4254ee	-0.1897771
77	0x3e1414bc	0.14461035
78	0xbd2371cf	-0.03990346
79	0x3c8507e8	0.016239122
80	0x3b759dfc	0.00374782
81	0x3d997373	0.07492723
82	0xbd5be4ff	-0.053685185
83	0xbce5e63a	-0.028063882
84	0xbb8f52fa	-0.0043739052
85	0x3e566694	0.20937568
86	0xbdf4ec7d	-0.11959169
87	0xbd51ece6	-0.051251315
88	0xbd266add	-0.040629257
89	0xbe21c553	-0.1579793
90	0xbd489822	-0.04897321
91	0xbca05f37	-0.019576652
92	0xbcec7c5d	-0.028867895
93	0xbdfd583d	-0.12370346
94	0x3d97848a	0.07398327
95	0xbdb73dc4	-0.08947328
96	0xbc23d837	-0.01000028
97	0xbd9d89fd	-0.07692335
98	0x3e13ad9d	0.14421697
99	0x3d44cd37	0.04804727
100	0x3c5679a1	0.013090522
101	0x3dd190c0	0.10232687
102	0x3c9e10c7	0.01929511
103	0x3e1f8b1f	0.15580414
104	0x3cdb80bb	0.026794782
105	0x3c88bc8d	0.01669147
106	0x3d9c4d60	0.076319456
107	0xbde2767e	-0.11057757
108	0x3d3d2d4e	0.046185784
109	0xbcd86aa6	-0.026418041
110	0x3d96c431	0.07361639
111	0x3d92699d	0.071490504
112	0xbdcccfa5	-0.100005426
113	0x3d23a598	0.039952844
114	0x3c54ecdf	0.012995928
115	0xbc868472	-0.016420577
116	0xbdddcc51	-0.10829986
117	0x3d4c850b	0.049931567
118	0x3b9c6676	0.0047729565
119	0xbc9bc66b	-0.019015511
120	0xbcb321de	-0.021866735
121	0xbd388922	-0.045052655
122	0xbe1077ea	-0.14108244
123	0x3db0dc41	0.0863576
124	0x3beb8bf4	0.0071883146
125	0xbbb0a0fc	-0.0053902846
126	0x3d2906ea	0.04126636
127	0xbd0e51c5	-0.03474595
128	0xbc874046	-0.01651014
129	0xbbd00ac5	-0.00634894
130	0xbcc0798a	-0.023495454
131	0x3cb9c9f3	0.022679305
132	0x3cb2bcc0	0.021818519
133	0xbd1d15f8	-0.03835103
134	0x3d86d372	0.06583299
135	0xb61966ac	-2.285854e-06
136	0x3502ff59	4.8800354e-07
137	0x35c3338d	1.4543635e-06
138	0x3625d0e8	2.4708515e-06
139	0x3623293c	2.4312894e-06
140	0x36102b11	2.148274e-06
141	0x33fbff0b	1.17344904e-07
142	0x34aa7104	3.1747197e-07
143	0x365f9fec	3.3322676e-06
144	0x35b024c7	1.3123725e-06
145	0xb53df270	-7.076078e-07
146	0x36066b93	2.0030172e-06
147	0xb61b5990	-2.3148932e-06
148	0x361d3023	2.3422842e-06
149	0x35d17a10	1.5607238e-06
150	0xb5fb3404	-1.8716096e-06
151	0xb60e68c3	-2.1220628e-06
152	0x360d7249	2.107716e-06
153	0xbdbd8e43	-0.0925565
154	0xbd5aa218	-0.05337724
155	0xbcc7aed1	-0.024375351
156	0xbdf29a56	-0.118458435
157	0xbce42fd0	-0.02785483
158	0xbd9cc776	-0.07655232
159	0xbe025f31	-0.12731625
160	0xbb2928cd	-0.0025811673
161	0xbd937ee6	-0.07201938
162	0xbe35f5ab	-0.17769496
163	0xbe1703db	-0.14747564
164	0xbdebadbd	-0.11507747
165	0x3e004b35	0.12528689
166	0x3db32b2c	0.08748469
167	0x3cecb43b	0.028894534
168	0x3e44412e	0.19165489
169	0x3e0d347c	0.13789552
170	0x3d7c2285	0.061556358
171	0xbd956221	-0.07294107
172	0xbd91f624	-0.07127026
173	0xbd698d76	-0.057019673
174	0x3d91ec6d	0.07125173
175	0x3d72ebc9	0.059306893
176	0xbbcd9cc3	-0.006274791
177	0x3e01ba3f	0.12668703
178	0x3d1e8286	0.038698696
179	0x3de8c1a3	0.11365058
180	0xbd961626	-0.07328443
181	0xbda60aa2	-0.08107497
182	0xbd36a662	-0.04459227
183	0x3dd26083	0.102723144
184	0x3e186116	0.14880785
185	0xbe0d8714	-0.1382106
186	0x3e0b0866	0.13577422
187	0x3db1d7be	0.08683728
188	0x3d83a5de	0.06428121
189	0xbe3f383e	-0.18673798
190	0xbe359296	-0.177317
191	0xbe0e4463	-0.13893275
192	0x3da2e19e	0.07953189
193	0x3d071e51	0.032987896
194	0x3e00a0f7	0.12561403
195	0xbc82d48d	-0.015970493
196	0xbcec597e	-0.028851267
197	0x3d85c3f9	0.065315194
198	0x35cf07e8	1.5425003e-06
199	0xb5e9bfdc	-1.7415691e-06
200	0xb5f9271a	-1.8563326e-06
201	0xb49cd67f	-2.921333e-07
202	0xb6100f9c	-2.1466758e-06
203	0x350d3bd0	5.261363e-07
204	0xb5102710	-5.3701024e-07
205	0x358c9739	1.0474824e-06
206	0x35c6f5ca	1.4823684e-06
207	0xbcc7c105	-0.024384031
208	0xbd81cdd4	-0.06338087
209	0xbd371e55	-0.04470666
210	0xbc5ba33c	-0.013405617
211	0x3cbf829c	0.02337771
212	0xbbc12431	-0.005894207
213	0xbd836cc9	-0.064172335
214	0xbd4c0196	-0.0498062
215	0xbd11087c	-0.035408482
216	0xbd81d81c	-0.06340048
217	0xbd7d83f0	-0.061893404
218	0xbd7338b1	-0.059380237
219	0xbd15a808	-0.0365372
220	0xbd5c51a1	-0.053788785
221	0xbd1894ca	-0.03725127
222	0x3d2061fd	0.03915595
223	0x3cf31b7d	0.029676193
224	0xbccfccf6	-0.025366288
225	0xbd32d4bb	-0.043659907
226	0xbd86754b	-0.065653406
227	0xbdb76a74	-0.08955851
228	0x3c76fa3a	0.015074307
229	0xbd5fe264	-0.054659262
230	0x3d84f9a4	0.06492928
231	0xbd49405d	-0.049133647
232	0xbcc3525f	-0.023842989
233	0x3d87a6c8	0.06623608
234	0xbcfbab91	-0.030721458
235	0xbbb7bf79	-0.005607542
236	0xbd19e7f2	-0.037574716
237	0x3dcd5342	0.10025646
238	0x3c2ea9bd	0.010660586
239	0x3da79ad9	0.08183832
240	0x3e03a709	0.12856688
241	0x3da7d7ed	0.081954814
242	0x3e06520f	0.1311724
243	0xbd2a3dd2	-0.041562863
244	0xbcf3a3ae	-0.029741134
245	0xbd15f8a1	-0.036614064
246	0xbc7b5ee5	-0.015342449
247	0xbd8a80a9	-0.06762821
248	0xbd756a2a	-0.0599157
249	0xbd2c1117	-0.042008486
250	0x3cb3a7f9	0.021930682
251	0x3d866ad7	0.06563347
252	0x3c21683e	0.009851513
253	0xbd21bd7d	-0.03948735
254	0x3c365f63	0.01113114
255	0xbc050c2c	-0.008120578

layer1.1.conv1.bias f4 [16]
0	0xbceda8a0	-0.02901107
1	0xbe369daf	-0.17833589
2	0xbc173b9e	-0.009230522
3	0xbe6e2ea9	-0.23259987
4	0xbd92039b	-0.07129594
5	0x3d9a19fe	0.07524489
6	0xbe0bb0f3	-0.1364172
7	0x3e721264	0.23639828
8	0xbd5a6386	-0.05331757
9	0x3d72cb7d	0.059276093
10	0xbe0dd111	-0.13849284
11	0x3c9ebe94	0.019377984
12	0xbe45dd51	-0.19322707
13	0xbdf43587	-0.11924272
14	0x3de30bab	0.1108621
15	0xbe07e7a8	-0.13271964

layer1.1.conv2.weight f4 [16, 16, 3, 3]
0	0x3c4c4c82	0.012469413
1	0x3d3995ee	0.045309
2	0x3c95c6be	0.018283244
3	0x3d28ca5c	0.04120861
4	0x3d414434	0.047184184
5	0x3d3bea52	0.045877762
6	0x3d945f98	0.072447956
7	0x3d860fd4	0.06545988
8	0x3b8af931	0.0042411317
9	0xbd177d4e	-0.036984734
10	0xbda1dfb6	-0.079039976
11	0xbd7be3fd	-0.061496723
12	0x3dfdc6be	0.12391423
13	0x3d454cd9	0.04816899
14	0xbe251141	-0.16119863
15	0xbcd94a4d	-0.026524687
16	0xbd188cac	-0.03724353
17	0xbd63d1c3	-0.055619966
18	0x3c16e8d6	0.009210786
19	0x3d6348e7	0.055489447
20	0xbd3b2200	-0.04568672
21	0x3d371490	0.044697344
22	0xbd7567f2	-0.059913583
23	0xbbd01d19	-0.006351125
24	0xbd2b7b68	-0.041865736
25	0x3d160693	0.036627363
26	0x3cd34708	0.025790706
27	0x3bceff0c	0.006317025
28	0x3bb81da0	0.005618766
29	0x3b4cb164	0.0031233663
30	0xbcdc0aff	-0.026860712
31	0xbcf8dd2c	-0.0303789
32	0xbcf5a2b6	-0.029984813
33	0xbd987d88	-0.07445818
34	0xbd8fdbab	-0.0702432
35	0xbcbf284d	-0.023334647
36	0xbd0baeb3	-0.034102153
37	0x3daa5063	0.08316114
38	0x3d8b0e1f	0.06789803
39	0xbd43f0bf	-0.047837015
40	0x3da01e3b	0.07818266
41	0x3d9bef6c	0.076140255
42	0xbdb206e9	-0.08692724
43	0xbd80bfa0	-0.062865496
44	0x3d434060	0.047668815
45	0xbcea0a21	-0.028569283
46	0xbcaaa23a	-0.020829309
47	0x3c6f549c	0.014607575
48	0xbc8ce601	-0.017199518
49	0x3c06e436	0.008233121
50	0x3cbf1064	0.023323245
51	0x3d1ec78b	0.038764518
52	0x3dba2282	0.09088613
53	0x3cbc7fb3	0.02301011
54	0xbd336acd	-0.043803025
55	0x3cba1a02	0.02271748
56	0xbb0b9120	-0.0021296218
57	0xbd2b4688	-0.04181531
58	0x3b9ec6fb	0.0048454977
59	0xbb0d3406	-0.00215459
60	0x3d7483ef	0.059696134
61	0x3b93224d	0.004490173
62	0x3b99ae40	0.0046899617
63	0xbd79a935	-0.060952384
64	0xbd732253	-0.059358906
65	0xbd2c55ba	-0.042073943
66	0xbc90b0ec	-0.017662488
67	0xbd285ae5	-0.04110231
68	0xbd71edcf	-0.059064683
69	0xbd89a5a4	-0.067210466
70	0x3e0a27dc	0.13491768
71	0x3e2ce3ca	0.1688377
72	0x3c52da47	0.012869424
73	0x3cebcb98	0.028783605
74	0x3d50b17a	0.050950505
75	0x3bcd5078	0.006265696
76	0xbcebc89a	-0.028782178
77	0xbbb2fee5	-0.0054625147
78	0xbcc189c9	-0.023625271
79	0xbd747f95	-0.059691984
80	0xbcb95309	-0.022622602
81	0xbd8518fa	-0.064989045
82	0xbca94f39	-0.02066766
83	0xbc8e3eae	-0.017363872
84	0xbd8d2049	-0.068909235
85	0xbd8f0125	-0.0698264
86	0xbaea6a3e	-0.0017884446
87	0xbabc72c4	-0.0014377465
88	0xbcc1c672	-0.023654196
89	0xbc2e7b82	-0.010649564
90	0xbcc53a20	-0.024075568
91	0xbccc8db4	-0.024969913
92	0xbcd816f0	-0.026378125
93	0xbb4a75da	-0.0030893
94	0xbd51ae35	-0.051191527
95	0xbd852152	-0.06500496
96	0x3dd15db2	0.10222949
97	0x3cc113b9	0.023568975
98	0xbd9d2494	-0.07672992
99	0x3df39e91	0.118954785
100	0x3e154560	0.14577246
101	0x3d4a2ee6	0.049361132
102	0x3e855519	0.26041487
103	0x3eb1867a	0.3467291
104	0x3e34ea10	0.17667413
105	0x3e82570b	0.25457034
106	0x3ea965f7	0.33085606
107	0x3e393336	0.18085942
108	0x3d926555	0.07148234
109	0x3d8d7d25	0.06908635
110	0x3b39be11	0.0028342048
111	0x3df56a4c	0.11983165
112	0x3d9cfb05	0.07665066
113	0x3d459749	0.04823998
114	0x3dceec74	0.101036936
115	0x3dc9678a	0.09834202
116	0x3d34d35e	0.044146888
117	0x3c2a096c	0.010378223
118	0xbbcd2930	-0.0062610134
119	0x3ca9c482	0.020723585
120	0x3cad1763	0.021129316
121	0x3d2c1696	0.042013727
122	0xbcebf15d	-0.028801614
123	0xbc5f1a16	-0.013617059
124	0x3d3d8f82	0.046279438
125	0xbce233f4	-0.027612664
126	0xbc1bfce2	-0.009520741
127	0x3c2219b5	0.009893824
128	0xbc91cb25	-0.017797062
129	0xbd70a0af	-0.05874699
130	0x3add9eae	0.0016908252
131	0x3d59878c	0.053107783
132	0xbd976dc4	-0.07393983
133	0xbd883554	-0.066507965
134	0xbc45b795	-0.012067695
135	0x3cd648b3	0.026157713
136	0x3da26f81	0.07931424
137	0x3d9217c8	0.07133442
138	0xbc88f48e	-0.016718175
139	0x3df29b96	0.11846082
140	0x3e0b0cfd	0.13579173
141	0xbd7ec63d	-0.062200774
142	0x3cb4ca9f	0.022069274
143	0x3d63c650	0.055609047
144	0x3d9b1eaf	0.07574212
145	0x3d76e6a0	0.060278535
146	0xbcec0bbd	-0.028814191
147	0x3d5a9876	0.053368054
148	0x3d9c9dd2	0.07647289
149	0xbc7a9bfc	-0.015295979
150	0x3d3ea0f5	0.04654022
151	0x3db050fd	0.08609197
152	0x3d23d2bf	0.039995905
153	0xbd2c1fa4	-0.042022362
154	0xbddd119f	-0.107943766
155	0xbda0ac61	-0.07845379
156	0x3db80107	0.08984571
157	0xbd17ba5f	-0.03704297
158	0x3d689f6e	0.05679267
159	0x3c1ee4f3	0.00969814
160	0xbc047d2e	-0.008086486
161	0x3ab3d263	0.0013719316
162	0xbba57141	-0.0050489013
163	0x3d2f19d1	0.04274923
164	0x3ba9e37a	0.005184588
165	0xbd905b36	-0.07048647
166	0x3d93c990	0.07216179
167	0x3bf3011b	0.0074159033
168	0xbe0342ab	-0.128184
169	0xbde8cf86	-0.11367707
170	0x3a93af37	0.0011267428
171	0x3ca7d7d7	0.020488663
172	0x3dd31c30	0.10308111
173	0x3dcee9eb	0.1010321
174	0x3cf408e1	0.02978939
175	0x3dd52219	0.10406894
176	0x3e283368	0.1642586
177	0x3d87e486	0.06635384
178	0x3dffa668	0.12482911
179	0x3e1bba43	0.15207772
180	0xbb86ecdb	-0.004117591
181	0x3cfa7da5	0.03057749
182	0x3d1733a3	0.03691448
183	0xbcf946dd	-0.030429298
184	0x3d133c35	0.03594609
185	0x3d31452d	0.04327886
186	0x3dd8b5cf	0.10581552
187	0x3d8dc4b7	0.06922286
188	0xbc214327	-0.0098426705
189	0x3d47db04	0.048792854
190	0x3d2bc38b	0.04193453
191	0x3b2ae2d8	0.002607515
192	0x3d3eb0b1	0.046555225
193	0x3aba7b84	0.0014227484
194	0xbd2a98e2	-0.041649707
195	0xbc8b50a3	-0.017006224
196	0xbd8dfad9	-0.06932611
197	0xbcf1668a	-0.02946784
198	0xbcd8a150	-0.026444107
199	0xbd459813	-0.048240732
200	0xbc9b83fc	-0.018983833
201	0xbd86860c	-0.06568536
202	0xbd6d9d0d	-0.058011103
203	0x3c088859	0.008333289
204	0x3c5067fd	0.012720105
205	0x3cb2588f	0.021770744
206	0x3d90d60d	0.07072077
207	0x3bbe02f8	0.0057986937
208	0xbd0313b0	-0.032001197
209	0xbcfc586d	-0.030803883
210	0xbd48c696	-0.04901751
211	0xbcfe466d	-0.031039441
212	0xbd78bdd8	-0.060727924
213	0xbe172fdd	-0.14764352
214	0xbe1366c4	-0.1439467
215	0xbda9aec3	-0.08285286
216	0xbcdc6622	-0.02690417
217	0x3c1e37b8	0.009656839
218	0x3a34bbea	0.00068944565
219	0xbd59539b	-0.053058248
220	0xbc0a2a54	-0.008432943
221	0x3d93305b	0.071869574
222	0xbd370637	-0.04468366
223	0x3cee0e38	0.029059514
224	0x3d7deb53	0.061992
225	0x3c72b428	0.01481346
226	0xbbcc99a7	-0.0062439027
227	0xbc563a35	-0.013075401
228	0x3de04307	0.109502845
229	0x3daaace1	0.08333755
230	0x3de7ba25	0.11314801
231	0x3d50d1a4	0.05098118
232	0x3c4d056a	0.012513498
233	0x3d9f7072	0.07785119
234	0x3d7a9848	0.061180383
235	0x3d064b4d	0.032786656
236	0x3c14183b	0.00903898
237	0x3cec48c0	0.028843284
238	0x3ccfb3de	0.025354322
239	0xbd515c76	-0.05111357
240	0x3d4cb05c	0.049972877
241	0x3d8164e8	0.063180745
242	0x3dd08347	0.10181289
243	0xbd03bc2b	-0.032161873
244	0xbc7262b7	-0.014794043
245	0x39e3036b	0.0004329936
246	0x3ac3ad0b	0.001492889
247	0xbcbb92c8	-0.02289714
248	0xbcc0976f	-0.02350971
249	0xbce21a83	-0.027600532
250	0xbd8bfca0	-0.06835294
251	0x3c985ed1	0.0185999
252	0xbd3bbbd9	-0.045833442
253	0x3d06ce0d	0.03291135
254	0x3da6f228	0.081516564
255	0xbcc4006a	-0.023925979

layer1.1.conv2.bias f4 [16]
0	0xbda565d7	-0.08076065
1	0xbee5bc05	-0.4487001
2	0xbe1f39bc	-0.15549368
3	0xbe00a23a	-0.12561885
4	0xbeb891ab	-0.36048636
5	0x3bf0978c	0.0073422845
6	0xbe527549	-0.20552553
7	0xbe7f12aa	-0.24909464
8	0xbe2faba5	-0.17155321
9	0xbe878578	-0.26469016
10	0xbe523e66	-0.20531616
11	0xbbe57913	-0.0070029586
12	0xbeb09c66	-0.34494323
13	0xbe13c4e1	-0.14430572
14	0xbd1f0521	-0.03882325
15	0xbdd893fa	-0.10575099

layer2.0.conv1.weight f4 [16, 16, 3, 3]
0	0x3de07a83	0.10960867
1	0x3c348bc7	0.011019654
2	0x3cee8411	0.029115709
3	0xbd34a8a8	-0.044106156
4	0x3d0eac8c	0.034832522
5	0x3e123c81	0.14280893
6	0xbdbba317	-0.09161966
7	0xbca734ed	-0.02041098
8	0xbbc23366	-0.0059265373
9	0x3c793ef7	0.015212766
10	0xbce05606	-0.02738477
11	0x3cd9c9f9	0.026585566
12	0xbc83f711	-0.016109021
13	0xbd1fbdf9	-0.03899953
14	0xbc42b775	-0.01188456
15	0xbdf45dda	-0.11931963
16	0xbe0a677a	-0.13516036
17	0xbdb54387	-0.088507704
18	0xbd552756	-0.052039467
19	0xbd9167f9	-0.07099909
20	0xbda4fb80	-0.08055782
21	0x3da0d0a1	0.07852293
22	0x3cce9894	0.02521924
23	0x3da06887	0.07832437
24	0x3dee62fd	0.11639974
25	0x3dfc4373	0.123175524
26	0x3daad41c	0.08341238
27	0xbdc1ee52	-0.09469284
28	0xbd73ed51	-0.059552494
29	0xbd9a9b86	-0.07549195
30	0x3e012942	0.12613395
31	0xbd4ec83a	-0.05048392
32	0x3dcd2bfc	0.10018155
33	0x3e760cf0	0.24028373
34	0x3e6ff62c	0.23433751
35	0x3e7ff4de	0.24995753
36	0xbcd5102a	-0.026008684
37	0x3be30ca5	0.0069289976
38	0x3c281198	0.010258101
39	0x3d59a783	0.053138267
40	0x3d4ca6fc	0.049963936
41	0x3cc886fa	0.024478424
42	0x3d2f1030	0.042740047
43	0x3d14f940	0.036370516
44	0x3a529024	0.0008032343
45	0xbd346182	-0.044038303
46	0xbb9422d7	-0.004520755
47	0xbcf8d705	-0.030375967
48	0x3bf11e2c	0.007358333
49	0x3cdafce9	0.026731925
50	0x3ccba923	0.024860924
51	0x3dde75eb	0.10862335
52	0x3d3c8ff3	0.04603572
53	0x3dd42c88	0.10360056
54	0xbd269462	-0.040668853
55	0xbd9c8345	-0.07642225
56	0xbd484e94	-0.048903063
57	0xbdcb3316	-0.09921853
58	0xbd9a1595	-0.07523648
59	0xbcd2edf0	-0.025748223
60	0xbd8f46f7	-0.06995957
61	0xbd6854d4	-0.056721523
62	0x3d202304	0.039095894
63	0xbdbf1dae	-0.09331833
64	0xbd885765	-0.06657294
65	0xbb54b2a8	-0.003245512
66	0xbd39fd2b	-0.045407455
67	0xbc663e00	-0.014052868
68	0xbcdcceb3	-0.02695403
69	0xbb511cbe	-0.0031908
70	0x3d7d9d65	0.06191768
71	0x3d1fccd7	0.03901371
72	0xbc0b56a1	-0.008504541
73	0xbce83e3e	-0.028349992
74	0xbd210144	-0.039307848
75	0xbd71867b	-0.05896614
76	0xbdfbf700	-0.12302971
77	0xbd9cc086	-0.076539084
78	0x3ccb775d	0.02483719
79	0xbcba9245	-0.022774825
80	0xbd36c261	-0.044618968
81	0x3cf311bb	0.02967154
82	0x3d63fa4e	0.05565863
83	0xbcc70fc4	-0.02429951
84	0xbc316286	-0.0108267125
85	0xbaef6611	-0.0018264671
86	0xbd98400c	-0.07434091
87	0xbd000510	-0.031254828
88	0xbd12a897	-0.03580531
89	0xbd5bc129	-0.05365101
90	0xbc6dd833	-0.014516878
91	0x3cfc8535	0.030825237
92	0xbd1f2131	-0.038850013
93	0x3d2c7335	0.042102057
94	0xbc276cfd	-0.010218856
95	0x3cf40c81	0.029791119
96	0x3d3a093d	0.045418967
97	0x3dea1e6a	0.11431582
98	0x3dcdbe73	0.10046091
99	0x3c88e103	0.016708856
100	0x3c07bd5f	0.008284896
101	0xbc49ef9b	-0.012325193
102	0x3c08156c	0.008305889
103	0xbd6a49b0	-0.05719918
104	0xbdb25958	-0.08708447
105	0xbdc8345f	-0.09775614
106	0xbde1b60f	-0.11021053
107	0xbda0afc6	-0.07846026
108	0xbcc0c1f3	-0.023529982
109	0xbcf1ccf3	-0.029516673
110	0x3d212acb	0.03934745
111	0x3c52cef7	0.012866727
112	0x3d62c7d2	0.055366345
113	0x3d87b839	0.066269346
114	0x3cf616bc	0.030040137
115	0x3d7e0b85	0.062022705
116	0xba9fd077	-0.0012192865
117	0x3e0576ab	0.1303355
118	0x3e35e971	0.17764832
119	0x3e5213b6	0.20515332
120	0xbd0de181	-0.034638885
121	0xbe3536ba	-0.17696658
122	0x3cc5d631	0.024149986
123	0xbdb90384	-0.09033874
124	0xbe018e5a	-0.12651959
125	0xbddaaa8b	-0.1067706
126	0xbcb7344c	-0.022363804
127	0xbd3b1cf9	-0.045681927
128	0x3c3231db	0.010876144
129	0xbd5cdaf0	-0.053919733
130	0xbddd9d8a	-0.10821064
131	0xbdee7ee0	-0.11645293
132	0xbda6c223	-0.081424974
133	0xbe23dac9	-0.16001429
134	0xbe1983c9	-0.14991678
135	0xbd68d05e	-0.05683934
136	0xbcb3e6d2	-0.02196065
137	0xbd45218b	-0.048127692
138	0xbd88f788	-0.06687838
139	0xbd21d2e9	-0.03950778
140	0xbda46c0d	-0.080284216
141	0xbcb928cf	-0.022602467
142	0xbdd2a9e3	-0.102863096
143	0xbcdaad87	-0.026694072
144	0x3d153b34	0.036433414
145	0xbc5055bd	-0.012715754
146	0xbd0929a5	-0.03348698
147	0x3db7803e	0.08960007
148	0x3d3f82da	0.04675565
149	0xbd6c9fb1	-0.05776948
150	0x3d5db82a	0.05413071
151	0x3c2be87a	0.010492438
152	0xbcc10821	-0.023563446
153	0xbe006147	-0.12537108
154	0xbd42db57	-0.04757246
155	0xbc753fae	-0.014968796
156	0xbc4cb629	-0.012494602
157	0x3d5aba28	0.05340019
158	0x3d330caa	0.04371325
159	0xbcb6504c	-0.022255085
160	0xbcac63c8	-0.021043673
161	0xbd9cee2b	-0.076626144
162	0x3e35ce9b	0.17754595
163	0x3dd55c2d	0.10417972
164	0xbd454f74	-0.048171476
165	0x3e1bf89f	0.1523156
166	0xbc951102	-0.018196587
167	0xbc5c329c	-0.013439801
168	0x3d976ac2	0.07393409
169	0xbc200cbb	-0.00976866
170	0xbcf905ae	-0.030398216
171	0xbe331d7a	-0.17491713
172	0xbdd86d79	-0.10567755
173	0xbcb3f72a	-0.021968443
174	0x3d544e16	0.05183228
175	0xbd98ec9a	-0.07467003
176	0x3d8772d8	0.066137016
177	0x3dc5bb05	0.09654812
178	0x3de2e0d4	0.11078039
179	0x3dd48805	0.10377506
180	0x3dc4e41d	0.09613822
181	0x3dd461b1	0.10370196
182	0x3d21522c	0.039385006
183	0x3d5e54d0	0.054280102
184	0xbc143a31	-0.009047077
185	0xbcaea656	-0.02131955
186	0xbadc7f7a	-0.0016822659
187	0x3c8a6a12	0.016896281
188	0xbd5cd0f2	-0.053910203
189	0xbd2b8e40	-0.041883707
190	0xbd4129ee	-0.047159128
191	0xbd48b54c	-0.049001023
192	0x3cd08b0e	0.025456931
193	0x3c52550e	0.012837661
194	0xbc61fea6	-0.013793623
195	0x3dd33e26	0.10314588
196	0x3ce2d9db	0.027691772
197	0xbd0fd513	-0.035115313
198	0xbdee4557	-0.11634319
199	0xbd9090db	-0.07058879
200	0xbd43d6bb	-0.047812205
201	0xbd66bde7	-0.05633345
202	0xbbff5fce	-0.007793403
203	0x3c11c1b9	0.008896285
204	0x3bffbd5c	0.007804556
205	0x3cae38f6	0.021267395
206	0x3d51b2c8	0.05119589
207	0x3d2e7c4c	0.042599007
208	0x3bf6a740	0.007527262
209	0xba3648f4	-0.000695362
210	0xbd296cbc	-0.041363463
211	0x3c893d5b	0.01675289
212	0xbd6a3097	-0.057175245
213	0x3ba86a89	0.005139653
214	0x3d1b72c4	0.037951246
215	0x3c12668d	0.008935583
216	0x3d08f073	0.033432435
217	0x3aae8c8c	0.0013317033
218	0xbc13d091	-0.009021894
219	0x3d496123	0.049164902
220	0x3d9cb753	0.07652154
221	0xbce68ebf	-0.028144239
222	0x3d589804	0.05287935
223	0x3cab1355	0.020883242
224	0x3c6c3375	0.014416565
225	0xbdd3c8d9	-0.10341043
226	0xbe06d00a	-0.13165298
227	0xbdc83575	-0.09775821
228	0xbde66c49	-0.112511225
229	0xba83713b	-0.0010028252
230	0x3c243c22	0.010024102
231	0xbd465ac6	-0.048426412
232	0x3cb3829a	0.021912862
233	0x3d86d89a	0.06584282
234	0x3d831765	0.064009465
235	0x3da7ba7b	0.08189865
236	0x3d4b1084	0.049576297
237	0x3e1bb2c9	0.1520492
238	0xbd836c19	-0.06417102
239	0x3dcc1cb3	0.099664114
240	0x3e9a3111	0.3011556
241	0x3e4a5b2f	0.19761346
242	0x3dfd283d	0.123611905
243	0xbd6eefd6	-0.058334194
244	0xbdb66aca	-0.08907087
245	0xbd5fd3a8	-0.05464521
246	0xbe2e46cd	-0.17019196
247	0xbe39c08a	-0.18139854
248	0xbe107c2f	-0.14109872
249	0xbe26938b	-0.1626722
250	0xbe32ef52	-0.17474106
251	0xbddaaede	-0.106778845
252	0xbd4e72b7	-0.05040237
253	0xbd02d303	-0.031939518
254	0x3cbfc050	0.023407131
255	0xbe19d6c4	-0.15023333

layer2.0.conv1.bias f4 [16]
0	0xbe3735d8	-0.17891634
1	0x3d58b823	0.05290998
2	0xb6d682a8	-6.3929074e-06
3	0xbe048373	-0.12940769
4	0xbd5cb2f1	-0.05388159
5	0x3d279416	0.04091271
6	0x3d5faeca	0.05461005
7	0x3d3f698c	0.046731517
8	0xbd6ee96b	-0.058328073
9	0x3e8bf55e	0.27335638
10	0x3e980208	0.2968905
11	0x3e78afe6	0.2428585
12	0x3e42444e	0.18971369
13	0x3dcd99d7	0.10039108
14	0xbe16b4d9	-0.14717425
15	0xbde18f7e	-0.11013697
