onnx/resnet_4b.onnx (onnx, 498335 bytes, 26 tensors)

conv1.weight f4 [16, 3, 3, 3]
-0.27607387 0.16216904 0.14558609 -0.29858083 0.13411972 0.18077162 -0.30579454 0.113768555
0.19872588 -0.2179812 0.1074873 0.1039476 -0.27714565 0.10004246 0.14231965 -0.23576915
0.0734747 0.13849716 -0.19083683 0.11508641 0.08335653 -0.3117121 0.16813053 0.16785218
-0.21935394 0.081183314 0.12137363 -0.10771121 -0.17343676 -0.15064332 -0.117734395 -0.2080421
-0.14671159 -0.1673744 -0.209033 -0.18996452 -0.029160276 -0.057412308 -0.05101177 -0.03700641
-0.0760315 -0.050367165 -0.05115219 -0.06418958 -0.056953892 0.010972042 -0.009103291 -0.0076888897
-0.00027883894 -0.018691812 -0.011676984 -0.015947627 -0.023116417 -0.020467248 -0.40282705 -0.019510873
0.43720463 -0.0027620597 -0.014593267 0.024296641 0.4292389 0.0025249617 -0.4164529 -0.28974798
-0.01867708 0.3042265 -0.0006373577 -0.017781248 0.0090113 0.31000257 -0.0072493623 -0.318489
-0.25174543 -0.013545306 0.2691537 0.0040217103 -0.021023212 0.010325638 0.2900338 0.0030902892
-0.28111717 0.07590269 0.21995571 -0.2643852 0.11679579 0.19831213 -0.29683107 0.14235102
0.18303245 -0.32374266 0.062398016 0.15609193 -0.21075809 0.089948796 0.15580954 -0.27499464
0.08906047 0.118292 -0.24952176 0.034440443 0.16225497 -0.18090855 0.09031032 0.24807438
-0.30597606 0.063904546 0.12521365 -0.22836033 0.06659905 0.10449594 0.066323996 0.03556245
0.06975519 0.032382835 0.006918422 0.013686414 -0.0117770145 0.004631715 0.022314327 0.0029256013
-0.012276301 -0.0049369447 -0.016451253 -0.025766619 -0.02543599 -0.036818326 -0.117687136 -0.119007334
-0.112041436 -0.15198225 -0.22661759 -0.16128401 -0.15033497 -0.17845853 -0.16588685 0.07544944
0.123362355 0.13297735 0.14039275 0.25942087 0.20372082 0.19650698 0.27513722 0.26816058
-0.08246944 -0.09838351 -0.08555398 -0.096831255 -0.13983548 -0.103316754 -0.13433637 -0.15793796
-0.15503097 -0.022937039 -0.039130658 -0.037287895 -0.05857491 -0.116938844 -0.08472926 -0.08689338
-0.13629861 -0.12909903 -0.14141543 -0.17782244 -0.14986987 0.22257309 0.33304644 0.27245834
-0.08982566 -0.1358089 -0.1177333 -0.09703019 -0.13221492 -0.11220659 0.17194323 0.26557478
0.20949492 -0.092990905 -0.1259071 -0.11407024 -0.11736797 -0.19780536 -0.13652246 0.2163272
0.4548789 0.25916225 -0.12143819 -0.19767924 -0.15247473 0.19763333 0.29539415 0.21491332
-0.00038540817 0.02510564 0.03301938 -0.20057152 -0.30071485 -0.21455401 0.12732363 0.19063815
0.13511828 -0.011815205 0.0005789589 0.012551032 -0.14009833 -0.21524435 -0.14972779 0.1310463
0.22853711 0.13853389 -0.010272931 0.0024583547 0.017030895 -0.1209803 -0.22045565 -0.1330201
0.12807697 0.18125813 0.12108568 -0.25865918 -0.40797815 -0.28880844 0.14470501 0.21494608
0.18433261 0.09790129 0.13731165 0.09163272 -0.18878993 -0.28205177 -0.20770107 0.086144425
0.14420244 0.11438983 0.110952675 0.17929256 0.110673815 -0.20068024 -0.34035525 -0.21756174
0.08635303 0.16335633 0.10741657 -0.089148395 -0.06845568 -0.10342976 -0.076267384 -0.069266826
-0.08612354 -0.13109203 -0.096754074 -0.1352029 -0.0011117579 0.027567495 -0.0038663016 0.010563065
00000000: 8e59 8dbe a40f 263e 8514 153e 96df 98be
00000010: ae56 093e 321c 393e 1a91 9cbe 7dff e83d
00000020: cc7e 4b3e 7736 5fbe 4d22 dc3d 7be2 d43d
00000030: 09e6 8dbe 10e3 cc3d 3ebc 113e 786d 71be
00000040: e779 963d 33d2 0d3e bb6a 43be 6cb2 eb3d
00000050: d4b6 aa3d ba98 9fbe 692a 2c3e 71e1 2b3e
00000060: 529e 60be 7043 a63d bd92 f83d b297 dcbd
00000070: 6899 31be 3e42 1abe bb1e f1bd fd08 55be
00000080: 903b 16be 3264 2bbe bf0c 56be 0f86 42be
00000090: 88e1 eebc 2b29 6bbd b8f1 50bd 0994 17bd
000000a0: 67b6 9bbd cd4d 4ebd f584 51bd d475 83bd
000000b0: 7c48 69bd 14c4 333c f825 15bc 15f3 fbbb
000000c0: 2131 92b9 921f 99bc d250 3fbc 99a4 82bc
000000d0: a45e bdbc eeaa a7bc 593f cebe 44d5 9fbc
000000e0: 49d9 df3e ac03 35bb 9918 6fbc c009 c73c
000000f0: 33c5 db3e d479 253b 5139 d5be d959 94be
00000100: ad00 99bc 93c3 9b3e 5a14 27ba fba9 91bc
00000110: 22a4 133c a8b8 9e3e 0f8c edbb fd10 a3be
00000120: c7e4 80be 22ed 5dbc 84ce 893e 8dc8 833b
00000130: df38 acbc dd2c 293c 4f7f 943e 7386 4a3b
00000140: 97ee 8fbe df72 9b3d 123c 613e 7f5d 87be
00000150: a232 ef3d 5612 4b3e 3efa 97be 77c4 113e
00000160: dc6c 3b3e 99c1 a5be 1095 7f3d 90d6 1f3e
00000170: f8d0 57be 1337 b83d 898c 1f3e 19cc 8cbe
00000180: 5665 b63d 1343 f23d a282 7fbe 6c11 0d3d
00000190: 2b26 263e 1740 39be 9ef4 b83d 3607 7e3e
000001a0: e5a8 9cbe 63e0 823d 0238 003e 4ad7 69be
000001b0: 1565 883d f801 d63d e0d4 873d eea9 113d
000001c0: cfdb 8e3d dda3 043d eeb3 e23b fb3c 603c
000001d0: 61f4 40bc a4c5 973b 89cc b63c 72bb 3f3b
000001e0: 8a22 49bc 18c6 a1bb c7c4 86bc 8414 d3bc
000001f0: 235f d0bc d0ce 16bd f405 f1bd 1eba f3bd
00000200: fb75 e5bd 3ca1 1bbe 710e 68be a327 25be
00000210: 69f1 19be d5bd 36be 3ede 29be 3c85 9a3d
00000220: 67a5 fc3d 372b 083e 1ec3 0f3e d0d2 843e
00000230: 319c 503e 2039 493e c9de 8c3e 584c 893e
00000240: bde5 a8bd 4b7d c9bd ed36 afbd 774f c6bd
00000250: 0831 0fbe bc97 d3bd 798f 09be 7dba 21be
00000260: 70c0 1ebe 75e6 bbbc 7847 20bd 31bb 18bd
00000270: 3fec 6fbd a27d efbd 8986 adbd 28f5 b1bd
00000280: dd91 0bbe 8932 04be 35cf 10be 1617 36be
00000290: 7d77 19be 33ea 633e 1085 aa3e a97f 8b3e
000002a0: 84f6 b7bd 7d11 0bbe 281e f1bd c4b7 c6bd
000002b0: 5963 07be 92cc e5bd e311 303e 6bf9 873e
000002c0: d685 563e 0472 bebd caed 00be a89d e9bd
000002d0: 9e5e f0bd 7d8d 4abe 8bcc 0bbe e184 5d3e
000002e0: e3e5 e83e eab0 843e 96b4 f8bd 6d6c 4abe
000002f0: 5622 1cbe 6460 4a3e e73d 973e 3d12 5c3e
00000300: 9c10 cab9 58aa cd3c 543f 073d 9f62 4dbe
00000310: 4cf7 99be 0cb4 5bbe 2061 023e a636 433e
00000320: 725c 0a3e 9094 41bc 46c5 173a d8a2 4d3c
00000330: f075 0fbe 0469 5cbe 3e52 19be 0031 063e
00000340: a205 6a3e d4db 0d3e cc4f 28bc 591c 213b
00000350: 6084 8b3c 85c4 f7bd 20bf 61be 6c36 08be
00000360: 9c26 033e bb9b 393e c5fb f73d fa6e 84be
00000370: 83e2 d0be b3de 93be 8d2d 143e d31a 5c3e
00000380: b0c1 3c3e 7980 c83d 6d9b 0c3e efa9 bb3d
00000390: 2652 41be 1769 90be 97af 54be 7d6c b03d
000003a0: cea9 133e 3745 ea3d 283b e33d 7898 373e
000003b0: f4a8 e23d 1f7f 4dbe 0b43 aebe 81c8 5ebe
000003c0: dbd9 b03d e246 273e 38fd db3d 6f93 b6bd
000003d0: 7e32 8cbd fbd2 d3bd 1332 9cbd c4db 8dbd
000003e0: 8a61 b0bd fd3c 06be 0027 c6bd a172 0abe
000003f0: 68b8 91ba 3ad5 e13c c761 7dbb b510 2d3c

conv1.bias f4 [16]
-0.07263203 -0.221812 -0.04991589 -0.092399284 -0.15804154 -0.20721512 -0.10305255 -0.14243235
-0.09222934 0.3883931 -0.10927748 -0.15233983 0.19699982 -0.05241144 0.20541303 -0.03491174
00000000: 1ac0 94bd af22 63be 9b74 4cbd d63b bdbd
00000010: a4d5 21be 3330 54be 370d d3bd c9d9 11be
00000020: bce2 bcbd 76db c63e dfcc dfbd f9fe 1bbe
00000030: 52ba 493e 61ad 56bd cb57 523e 9dff 0ebd

layer1.0.conv1.weight f4 [32, 16, 3, 3]
0.0029007527 -0.0020000222 0.00082544936 0.022263946 0.030402556 0.02456466 0.017318266 -0.0006972167
0.0072652325 0.015248979 0.012747388 0.016276248 -0.0507783 -0.08317919 -0.060408738 -0.045303915
-0.102756314 -0.086289294 -0.0043618856 -0.013278549 0.0021371688 -0.009387585 -0.00617917 0.009667725
-0.0035094141 -0.0058472655 -0.003249792 0.0013787142 -0.004632008 -0.0010590208 0.0132796895 0.014395596
0.013715115 0.0012322544 -0.009322121 0.0050186194 -0.016323237 0.013717414 -0.02860552 0.06273431
0.11609097 0.08150835 0.065836705 0.1470306 0.092910774 0.06499469 0.101054884 0.060767863
0.13778871 0.1590935 0.15556806 0.09729654 0.17808461 0.1470389 -0.014213531 -0.0055116587
-0.012459194 -0.010631909 -0.017769359 -0.015265722 -0.010459159 -0.0137815 -0.012462949 -0.009323013
0.0077838455 0.01665947 -0.029015705 -0.0017970152 -0.009673893 -0.01854462 -0.037515447 -0.03226211
-0.006018712 -0.012161834 -0.0022462225 -0.010367337 0.0032179356 -0.0016944208 -0.0014646347 5.7414618e-05
-0.00067812484 0.020827293 0.027555624 0.04524155 -0.029468935 -0.04511712 -0.010056822 0.005523061
-0.02092843 0.0012807375 -0.008803593 -0.016698644 -0.016848808 -0.0042099156 0.0118441135 -0.001391956
0.0026771924 0.0084577035 0.001767992 -0.0060245916 -0.004209335 -0.00867078 0.06270217 0.07161711
0.06667886 0.06717594 0.10993706 0.071246915 0.019198887 -0.012771834 0.048570037 -0.031405196
-0.07252862 -0.031838365 0.0129762115 -0.049871054 -0.024170019 0.0074050436 0.0007213629 0.003612928
0.015227758 0.005872667 0.016523462 0.013281848 0.0018809355 0.008316447 0.00907003 -0.025233215
-0.020791808 0.05561003 0.011315429 0.023418255 0.022683546 0.014117243 0.013478773 -0.017257534
-0.026409952 -0.018034643 -0.003915333 -0.040933874 -0.008021916 -0.0056296024 0.0055586537 0.004616173
0.0018520558 0.02187097 0.023407636 -0.017830364 0.00021452106 0.023736127 -0.00728992 0.004297258
0.009286892 -0.018661259 -0.011960393 0.093658924 -0.06784403 -0.09035182 -0.013687904 0.03170474
-0.07058642 -0.00015292632 -0.009844492 -0.0040285285 -0.0055542635 -0.023728635 -0.014208021 -0.0045067896
-0.022362536 -0.025432456 -0.002310684 -0.0070823412 0.0033999868 0.012955289 -0.009040718 0.004219086
0.012681658 0.022935608 0.010699051 0.016804446 0.04642231 0.014890354 0.056867365 -0.0026905616
-0.014319577 -0.0005694756 0.025633011 -0.036826417 -0.01615495 0.0020934117 -0.013795714 -0.02173104
0.0021171358 0.0038809574 -0.027551403 -0.012035578 -0.024539053 -0.03132424 0.007895798 0.0065671876
0.005736231 -0.014119015 -0.016374912 -0.0040538297 -0.016537396 -0.008135508 0.01316966 0.0012582116
0.0010092197 -0.00038261124 0.0075210193 0.0316391 0.019624852 0.025811119 0.01724115 0.047062147
-0.0055660056 -0.0072411094 -0.00749128 -0.034937114 -0.034328543 0.008883317 0.0005157306 -0.01827015
-0.0017427063 -0.095592245 -0.09761709 -0.04965724 -0.09921597 -0.09401052 -0.062319033 -0.077800006
-0.092644356 -0.060803957 0.0061898995 0.023586215 0.011722847 -0.057720114 -0.06318414 0.02377229
-0.0027611875 0.014422974 0.030592961 -0.051993877 -0.02535029 0.00028869614 -0.093057945 -0.047403134
-0.033897705 -0.059345108 -0.07151529 -0.054254852 -0.10005336 -0.101446815 -0.096397854 -0.10928782
00000000: 8e1a 3e3b ce12 03bb f862 583a e162 b63c
00000010: c80e f93c d33b c93c 09df 8d3c 6cc5 36ba
00000020: 3011 ee3b dbd6 793c 6cda 503c c455 853c
00000030: e8fc 4fbd da59 aabd 276f 77bd 9990 39bd
00000040: e771 d2bd 71b8 b0bd 26ee 8ebb 458e 59bc
00000050: be0f 0c3b 63ce 19bc a37a cabb 6165 1e3c
00000060: 33fe 65bb 6b9a bfbb 76fa 54bb f9b5 b43a
00000070: 19c8 97bb d7ce 8aba 0e93 593c 82db 6b3c
00000080: 5db5 603c 9983 a13a cfbb 18bc 3b73 a43b
00000090: 4fb8 85bc 01bf 603c 2056 eabc d97a 803d
000000a0: 1ac1 ed3d daed a63d 65d5 863d 318f 163e
000000b0: 0148 be3d f01b 853d ddf5 ce3d b9e7 783d
000000c0: 7c18 0d3e 68e9 223e 3c4d 1f3e 6943 c73d
000000d0: d05b 363e 5e91 163e dfdf 68bc 259b b4bb
000000e0: a621 4cbc 7531 2ebc 0c91 91bc 141d 7abc
000000f0: e45c 2bbc cdcb 61bc 6631 4cbc 8dbf 18bc
00000100: a10f ff3b 7179 883c 58b2 edbc d389 ebba
00000110: 407f 1ebc e3ea 97bc cca9 19bd 4625 04bd
00000120: 9e38 c5bb 6e42 47bc 5c35 13bb c3db 29bc
00000130: 00e4 523b 5417 deba fcf8 bfba 7ad0 7038
00000140: 30c4 31ba 009e aa3c 55bc e13c 344f 393d
00000150: d668 f1bc bbcc 38bd 5ec5 24bc cbfa b43b
00000160: 1972 abbc 6bde a73a f23c 10bc 98cb 88bc
00000170: 8306 8abc 55f3 89bb d00d 423c 4b72 b6ba
00000180: d673 2f3b 2e92 0a3c f8bb e73a f069 c5bb
00000190: 76ee 89bb e30f 0ebc ff69 803d feab 923d
000001a0: ed8e 883d 8a93 893d ae26 e13d e7e9 913d
000001b0: fc46 9d3c f440 51bc 60f1 463d bca2 00bd
000001c0: e389 94bd f268 02bd 2d9a 543c 9745 4cbd
000001d0: 3400 c6bc 02a6 f23b d819 3d3a e0c6 6c3b
000001e0: d97d 793c 806f c03b 365c 873c 1c9c 593c
000001f0: b989 f63a b541 083c 779a 143c e3b5 cebc
00000200: 9553 aabc 58c7 633d 5964 393c a4d7 bf3c
00000210: d8d2 b93c 024c 673c 12d6 5c3c ac5f 8dbc
00000220: af59 d8bc 63bd 93bc 324c 80bb 47aa 27bd
00000230: 5b6e 03bc 8778 b8bb 5e25 b63b 4443 973b
00000240: aec0 f23a c02a b33c 5fc1 bf3c fc10 92bc
00000250: 0ff1 6039 4472 c23c 48e0 eebb 03d0 8c3b
00000260: 0c28 183c 7fdf 98bc 86f5 43bc 40d0 bf3d
00000270: d0f1 8abd 600a b9bd 3b43 60bc d4dc 013d
00000280: 9d8f 90bd d95a 20b9 cb4a 21bc bf01 84bb
00000290: 8a00 b6bb 8e62 c2bc c2c8 68bc b1ad 93bb
000002a0: a331 b7bc ba57 d0bc d86e 17bb fc12 e8bb
000002b0: 50d2 5e3b 6c42 543c 851f 14bc 4240 8a3b
000002c0: bbc6 4f3c 75e3 bb3c 134b 2f3c 7aa9 893c
000002d0: 5225 3e3d acf6 733c c1ed 683d 2254 30bb
000002e0: a99c 6abc dc48 15ba 52fc d13c 4cd7 16bd
000002f0: 6357 84bc 9f31 093b 6b07 62bc 4b05 b2bc
00000300: a5bf 0a3b a957 7e3b 7bb3 e1bc df30 45bc
00000310: 2006 c9bc d94d 00bd 615d 013c 9031 d73b
00000320: fef6 bb3b 7153 67bc ae24 86bc fdd5 84bb
00000330: 6f79 87bc cb4a 05bc 8fc5 573c 93ea a43a
00000340: cb47 843a 3699 c8b9 e272 f63b 0098 013d
00000350: 4cc4 a03c d771 d33c 503d 8d3c 3dc4 403d
00000360: 0a63 b6bb d446 edbb 6979 f5bb 381a 0fbd
00000370: 169c 0cbd 558b 113c 1832 073a 48ab 95bc
00000380: 856b e4ba dec5 c3bd 78eb c7bd 6465 4bbd
00000390: be31 cbbd 9688 c0bd 3e42 7fbd 9c55 9fbd
000003a0: 53bc bdbd 920d 79bd a4d4 ca3b e137 c13c
000003b0: 2f11 403c ed6b 6cbd b066 81bd 1bbe c23c
000003c0: 0af5 34bb 564e 6c3c 179e fa3c 88f7 54bd
000003d0: 69ab cfbc 245c 9739 2a95 bebd ca29 42bd
000003e0: 52d8 0abd db13 73bd 9c76 92bd 563a 5ebd
000003f0: c7e8 ccbd 59c3 cfbd 3d6c c5bd 4bd2 dfbd

layer1.0.conv1.bias f4 [32]
0.04211775 0.56159866 0.651549 -0.29699117 -0.03405569 -0.09796973 -0.22535075 -0.09773264
-0.16903478 -0.12034163 0.55280906 -0.04210393 -0.09168386 -0.07319095 -0.37076542 0.19562292
-0.12222226 -0.07742741 -0.06994457 -0.09900278 0.612823 -0.0765285 -0.0016194826 0.055249434
-0.13698813 -0.052057415 -0.039890595 -0.028802246 -0.08490377 -0.1259084 -0.38096267 -0.097356625
00000000: a983 2c3d eec4 0f3f eacb 263f 3a0f 98be
00000010: fb7d 0bbd 5ba4 c8bd 59c2 66be 0d28 c8bd
00000020: 7417 2dbe ac75 f6bd e584 0d3f 2c75 2cbd
00000030: bfc4 bbbd 23e5 95bd f7d4 bdbe 6051 483e
00000040: aa4f fabd 4392 9ebd 193f 8fbd f8c1 cabd
00000050: f8e1 1c3f f9ba 9cbd d244 d4ba 3b4d 623d
00000060: 9e46 0cbe 283a 55bd 5264 23bd b0f2 ebbc
00000070: 07e2 adbd 22ee 00be 8a0d c3be e962 c7bd

layer1.0.conv2.weight f4 [32, 32, 3, 3]
-0.04330184 -0.03487493 0.014538264 -0.043575097 0.044836562 0.06076876 -0.010458182 0.03561133
-0.03641456 -0.057628546 -0.060895443 -0.013333248 -0.08086373 0.0033192486 0.09856905 -0.067761295
0.026404815 0.07014218 -0.053895462 -0.05905128 -0.013760134 -0.016107028 0.0061395313 0.02885819
0.015520658 0.0633398 -0.011173666 0.009442123 -0.02558326 -0.011887183 -0.012406266 -0.01105141
-0.04011884 0.07948002 0.011707399 -0.057408124 0.006468842 -0.06496568 -0.045855537 0.04924704
-0.121993214 -0.117293924 -0.06250036 -0.16835545 -0.0036404005 -0.016632276 -0.00011327924 0.004867924
0.025758201 -0.0051133977 0.011192053 -0.0012957655 0.035777986 0.002327233 -0.0075853462 -0.06559292
-0.0021221212 0.08321148 0.10853441 0.010649142 -0.035512514 -0.14727508 -0.086572856 0.05380184
0.07761893 0.051811703 0.16577166 -0.0160337 -0.19849244 -0.08528464 0.043104082 0.07673581
-0.0008627779 0.057750367 0.0067319577 -0.04412019 -0.11352106 0.061170798 0.01435928 0.12632334
0.17769092 -0.028032465 -0.002228709 -0.016893202 0.017838785 -0.060573287 -0.04496625 0.011322712
0.03279248 0.009145866 0.0803285 0.027313592 0.013548877 0.07088885 0.13041224 0.026379455
-0.0114713665 -0.050274078 -0.11609496 0.053196635 0.03281976 0.00516028 0.09306372 0.047775734
0.09466636 0.045379 0.06450765 0.096356526 -0.047029708 -0.056421243 -0.08005394 -0.018359315
-0.018680261 0.03357532 0.007800616 -0.092525214 -0.10657389 0.037378058 0.015725514 -0.001001307
-0.0069032614 0.0934617 0.1128911 0.04304484 0.05103488 0.035817556 -0.00306945 -0.01950099
0.011920685 0.060057472 0.05181588 0.023134949 0.010892801 -0.012822022 -0.072874464 -0.059330482
0.0012810309 0.00063287886 0.0017853257 0.07289072 0.053379014 0.018851656 0.0035943731 -0.009139433
-0.03578381 -0.037650187 0.0145390835 -0.07321353 -0.092549644 0.049259987 -0.09787488 -0.09081886
-0.057812963 0.012426052 0.045228742 -0.019873308 0.031991947 -0.0711632 -0.18474069 -0.049251337
-0.09074322 0.012301704 0.020366855 0.029314755 0.00966516 0.08930808 0.14097387 0.0016831622
-0.021349085 0.007981244 0.07832326 -0.02157629 -0.061855275 0.041789103 -0.093079016 -0.068798944
0.15717813 0.08028175 0.061150476 0.06455075 0.059418734 0.022382315 0.047033127 -0.030444724
-0.0075840172 -0.021722935 -0.010332895 0.040939823 -0.008368506 -0.017110346 -0.01702864 -0.020549765
0.015070811 -0.03974069 -0.05355704 -0.013055908 -0.11435665 -0.11398456 0.032424223 0.07129606
-0.017446632 0.06459135 0.04493296 -0.16668454 0.03716271 -0.02914384 -0.112727806 -0.022710294
-0.107896194 0.041025314 -0.12267058 -0.059173554 0.30799365 -0.012076298 0.11141881 0.20820165
0.0123191895 -0.017030306 -0.006414211 -0.0004457788 -0.026301255 -0.09044889 -0.008472143 -0.012870837
-0.040788274 0.01178425 -0.008256284 0.00042169154 0.018533133 -0.05841113 -0.013597929 0.0027754104
-0.015163789 0.02579654 -0.0064057102 0.014311197 0.009964892 0.006097656 -0.12770675 -0.08234102
-0.0074912314 -0.04100496 -0.06560875 0.031099197 -0.010113534 -0.019546993 0.022161065 -0.026044669
-0.1551295 -0.032211777 -0.17490129 -0.135591 -0.016749186 -0.007962298 -0.030928614 -0.009505723
00000000: 455d 31bd 04d9 0ebd e631 6e3c cd7b 32bd
00000010: 8ba6 373d aae8 783d cb58 2bbc 30dd 113d
00000020: 6f27 15bd e90b 6cbd 806d 79bd b273 5abc
00000030: e29b a5bd c087 593b 92de c93d 6fc6 8abd
00000040: e94e d83c b4a6 8f3d 7dc1 5cbd c1df 71bd
00000050: 2f72 61bc e3f2 83bc 1f2e c93b 0368 ec3c
00000060: 5c4a 7e3c 4cb8 813d c111 37bc 22b3 1a3c
00000070: fc93 d1bc 76c2 42bc a743 4bbc f910 35bc
00000080: a753 24bd 6cc6 a23d 64d0 3f3c c824 6bbd
00000090: 94f8 d33b ba0c 85bd 04d3 3bbd 44b7 493d
000000a0: 94d7 f9bd cc37 f0bd 3000 80bd 5f65 2cbe
000000b0: c993 6ebb 6940 88bc 5490 edb8 1b83 9f3b
000000c0: dd02 d33c 4a8e a7bb df5e 373c add6 a9ba
000000d0: f08b 123d 7e84 183b 7f8e f8bb 9555 86bd
000000e0: 4913 0bbb c86a aa3d 4a47 de3d bd79 2e3c
000000f0: 9275 11bd 47cf 16be 1c4d b1bd 515f 5c3d
00000100: acf6 9e3d 8238 543d 0cc0 293e 1b59 83bc
00000110: 9a41 4bbe b7a9 aebd e88d 303d aa27 9d3d
00000120: 0b2c 62ba a68b 6c3d c197 dc3b 5fb7 34bd
00000130: bb7d e8bd 3b8e 7a3d 2f43 6b3c e85a 013e
00000140: 9cf4 353e 57a4 e5bc 880f 12bb 9d63 8abc
00000150: a522 923c b21b 78bd 882e 38bd e582 393c
00000160: 6851 063d 8bd8 153c 4583 a43d c1c0 df3c
00000170: 1cfc 5d3c 2c2e 913d c98a 053e ba19 d83c
00000180: 66f2 3bbc 31ec 4dbd 32c3 edbd b7e4 593d
00000190: 036e 063d 9117 a93b 3198 be3d 7db0 433d
000001a0: 70e0 c13d 55df 393d 961c 843d 9256 c53d
000001b0: 39a2 40bd f619 67bd 52f3 a3bd 4666 96bc
000001c0: 5907 99bc 4686 093d 4f9c ff3b dc7d bdbd
000001d0: 6943 dabd bc19 193d cbd2 803c 4a3e 83ba
000001e0: c134 e2bb d968 bf3d 7333 e73d c94f 303d
000001f0: f309 513d 6eb5 123d d328 49bb 8ac0 9fbc
00000200: fa4e 433c d3fe 753d e33c 543d 8185 bd3c
00000210: b877 323c 7513 52bc 353f 95bd 8504 73bd
00000220: 44e8 a73a c8e7 253a 9701 ea3a bb47 953d
00000230: f4a3 5a3d ca6e 9a3c 938f 6b3b 8fbd 15bc
00000240: 0b92 12bd 1537 1abd 5635 6e3c faf0 95bd
00000250: ab8a bdbd d7c4 493d a072 c8bd 3dff b9bd
00000260: 49cd 6cbd a496 4b3c c641 393d 59cd a2bc
00000270: fd09 033d 03be 91bd aa2c 3dbe c5bb 49bd
00000280: 95d7 b9bd 168d 493c 64d8 a63c 7f25 f03c
00000290: 9f5a 1e3c 28e7 b63d 745b 103e 8d9d dc3a
000002a0: 47e4 aebc c3c3 023c f267 a03d c2c0 b0bc
000002b0: f55b 7dbd 0d2b 2b3d 36a0 bebd 76e6 8cbd
000002c0: 4ef3 203e c26a a43d ec78 7a3d 2f33 843d
000002d0: 0f61 733d 1e5b b73c cfa5 403d 3767 f9bc
000002e0: 5983 f8bb 4cf4 b1bc 4e4b 29bc 84b0 273d
000002f0: 0f1c 09bc ff2a 8cbc a57f 8bbc fb57 a8bc
00000300: 90eb 763c 22c7 22bd a05e 5bbd 72e8 55bc
00000310: d233 eabd bd70 e9bd 43cf 043d ab03 923d
00000320: 3dec 8ebc 7848 843d a00b 383d 5aaf 2abe
00000330: ed37 183d 10bf eebc d6dd e6bd f00a babc
00000340: aef8 dcbd 290a 283d b73a fbbd f85f 72bd
00000350: 58b1 9d3e aadb 45bc 8c2f e43d d032 553e
00000360: 6dd6 493c 2483 8bbc 4d2e d2bb 6bb7 e9b9
00000370: bb75 d7bc 453d b9bd bece 0abc 34e0 52bc
00000380: 9b11 27bd ba12 413c 5d45 07bc 7b16 dd39
00000390: ccd2 973c 8240 6fbd d9c9 5ebc a9e3 353b
000003a0: 8a71 78bc 4453 d33c fee6 d1bb 8379 6a3c
000003b0: c943 233c d9ce c73b 8fc5 02be 69a2 a8bd
000003c0: 0179 f5bb d1f4 27bd e15d 86bd bec3 fe3c
000003d0: 3cb3 25bc 0421 a0bc 1f8b b53c a15b d5bc
000003e0: 45da 1ebe 7ff0 03bd 5319 33be 5ed8 0abe
000003f0: 9735 89bc 4c74 02bc 015e fdbc e4bd 1bbc

layer1.0.conv2.bias f4 [32]
0.088107936 -0.20574616 0.16838521 -0.22240365 0.14770892 -0.032394927 -0.14316535 0.33395845
0.55647063 -0.07467837 0.017188774 -0.07478835 0.15082869 0.39737102 -0.28361493 0.13780923
0.24285477 0.6004123 -0.002908012 -0.15815543 0.0058280337 -0.02632614 0.038724992 -0.18130866
0.11557745 -0.051124472 -0.018102111 -0.010099755 -0.0027458475 -0.06434907 -0.1289597 0.08762339
00000000: ef71 b43d 1faf 52be 2c6d 2c3e c8bd 63be
00000010: 0241 173e 8bb0 04bd f099 12be 9afc aa3e
00000020: dc74 0e3f f9f0 98bd 79cf 8c3c a22a 99bd
00000030: d672 1a3e 3774 cb3e fa35 91be dd1d 0d3e
00000040: ecae 783e 9fb4 193f 5894 3ebb 7ff3 21be
00000050: 17f9 be3b eba9 d7bc 199e 1e3d faa8 39be
00000060: dfb3 ec3d e567 51bd e14a 94bc 7179 25bc
00000070: adf3 33bb 72c9 83bd 030e 04be e473 b33d

layer1.0.shortcut.0.weight f4 [32, 16, 1, 1]
-0.0130403545 0.11229514 -0.0021089811 -0.04862378 0.11139814 -0.043677986 -0.032281857 0.0020477218
0.017974272 -0.01855554 -0.0026269993 -0.019833328 -0.13888913 -0.0070575024 -0.23804885 -0.037474554
-0.021230223 -0.14708401 -0.027227143 -0.08588843 -0.0296516 0.014175829 -0.04717919 -0.06390152
-0.043687254 0.0222726 -0.071097985 -0.04375165 0.08173556 -0.021589894 0.10321856 -0.02467449
-0.016364845 -0.2909101 -0.0058033396 0.022332564 -0.1384067 -0.007043486 -0.00045672248 0.0004234908
-0.021571795 0.08894861 -0.051541097 -0.0002744687 0.24400206 0.003439888 0.40682516 0.024110135
-0.015513419 -0.07526349 -0.0069388137 0.02174007 -0.03174045 0.0092445575 0.0018251574 -0.013253907
0.0068382397 0.021603217 0.02255081 -0.024038158 0.12271867 0.0058340128 0.12573895 -0.0033032019
-0.04444047 -0.10570146 -0.010651343 -0.0479963 0.011100323 -0.06668626 0.018136168 0.02220355
0.0023098348 0.018107675 0.0142071815 -0.04105619 -0.004307326 -0.013736605 0.054581612 0.0039680433
-0.0016289451 -0.1899795 0.008881485 0.056602288 -0.1157951 0.015703866 0.0008905961 -0.055429664
0.01659598 0.09996352 0.044733904 -0.08188805 -0.06220783 0.04924014 -0.058926556 0.031278204
0.03088654 0.033853907 -0.014253529 0.06666371 0.0037403337 0.026161212 -0.023965115 -0.080103494
-0.024172792 0.0011793041 -0.060324088 -0.022432776 -0.07649225 0.07795617 -0.115876995 -0.029999841
0.025496013 -0.0027711343 0.038163103 0.052082643 -0.028601673 -0.031638276 0.0069039827 0.032067217
0.005871803 -0.001363006 0.020834342 -0.020462027 0.05850283 0.0341536 0.032582026 0.085542485
-0.027198715 -0.05159131 -0.007974321 0.0026541217 -0.0045967307 -0.0122146495 -0.016907899 -0.0059589525
-0.0075798784 0.029805804 0.009367452 -0.012592351 0.044930514 -0.0003535771 0.09478452 -0.019172512
-0.03201405 -0.061633214 -0.01965558 0.013896948 -0.036750462 0.07474623 -0.0142934555 -0.052034948
-0.0082848165 -0.03583264 0.024222462 0.010441019 -0.07303968 0.0009203111 0.08897849 0.05571206
-0.01299794 0.13348474 -0.020696888 0.019602736 -0.029169982 0.11713934 0.0111096585 -0.052660234
0.0031895677 -0.04730757 -0.03416305 0.047757268 -0.054967053 4.914115e-05 -0.05148791 0.020117814
-0.033849206 0.08013896 -0.049610782 -0.09037412 0.08412659 0.0013390714 -0.0044144657 -0.0019547201
-0.011782216 0.008710977 0.026688436 0.04470349 0.006365335 -0.0419907 -0.03849266 -0.010653446
0.033316545 -0.03825627 0.021095391 0.10651905 -0.05334225 -0.03570115 -0.0024954411 0.09327262
0.02580585 0.0032086007 0.018021207 -0.01651509 -0.04079798 0.06977525 -0.12911268 0.0028902008
0.011377336 -0.08006165 0.02185152 0.009319193 0.12817204 -0.0073478203 0.013549473 -0.008052776
0.007821456 -0.05065757 -0.010496994 -0.07089051 -0.09255005 0.034304406 0.03942051 -0.056572612
-0.053728487 0.10568989 -0.02460293 -0.022729367 0.17074507 0.31483567 -0.0056971856 -0.03828543
0.0015646567 0.05109355 -0.0322296 0.2852841 -0.016428255 -0.016749356 0.16886906 0.18374541
-0.059390545 0.25846082 -0.014903568 0.0055162236 0.13694398 0.043754347 -0.022444097 -0.052772213
-0.019948969 -0.09698551 0.03383425 0.101266965 -0.20364225 -0.041602124 -0.2614518 -0.03231357
00000000: 36a7 55bc fffa e53d d536 0abb bb29 47bd
00000010: b524 e43d b0e7 32bd fb39 04bd 1233 063b
00000020: c83e 933c ca01 98bc bc29 2cbb 8179 a2bc
00000030: f438 0ebe 9f42 e7bb 14c3 73be eb7e 19bd
00000040: 01eb adbc 319d 16be 750b dfbc 46e6 afbd
00000050: eae7 f2bc bc41 683c f73e 41bd cdde 82bd
00000060: 68f1 32bd 0775 b63c d29b 91bd ee34 33bd
00000070: f964 a73d 4add b0bc 4164 d33d 2822 cabc
00000080: 910f 86bc 2bf2 94be f129 bebb c8f2 b63c
00000090: 7cba 0dbe 0bcd e6bb 4174 efb9 f907 de39
000000a0: 55b7 b0bc b02a b63d c21c 53bd 91e6 8fb9
000000b0: addb 793e be6f 613b 634b d03e 9e82 c53c
000000c0: ff2b 7ebc bf23 9abd fd5e e3bb 3b18 b23c
000000d0: 4602 02bd 7c76 173c 1f3a ef3a ea26 59bc
000000e0: 5013 e03b 3bf9 b03c 7abc b83c aceb c4bc
000000f0: ed53 fb3d 3f2b bf3b b6c1 003e 887a 58bb
00000100: 3607 36bd 027a d8bd f882 2ebc c597 44bd
00000110: 21de 353c ce92 88bd 4d92 943c 38e4 b53c
00000120: 9960 173b 8c56 943c 3dc5 683c 892a 28bd
00000130: 7824 8dbb 7f0f 61bc f890 5f3d 5c06 823b
00000140: 5482 d5ba fc89 42be a683 113c cdd7 673d
00000150: fb25 edbd 65a5 803c e476 693a 370a 63bd
00000160: 4bf4 873c adb9 cc3d e63a 373d ecb4 a7bd
00000170: a3cd 7ebd 07b0 493d f95c 71bd 931d 003d
00000180: c505 fd3c 65aa 0a3d a287 69bc fc86 883d
00000190: 6320 753b 0a50 d63c 7d52 c4bc 4d0d a4bd
000001a0: 0506 c6bc e192 9a3a 6416 77bd f1c4 b7bc
000001b0: f8a7 9cbd 7ca7 9f3d eb50 edbd 3ac2 f5bc
000001c0: 04dd d03c eb9b 35bb ea50 1c3d 9c54 553d
000001d0: 0e4e eabc 2397 01bd ce3a e23b ea58 033d
000001e0: 4168 c03b e4a6 b2ba c8ac aa3c fb9f a7bc
000001f0: aaa0 6f3d a5e4 0b3d bb74 053d e630 af3d
00000200: d7cf debc 6951 53bd baa6 02bc c6f0 2d3b
00000210: 2ca0 96bb f41f 48bc 6f82 8abc 5143 c3bb
00000220: a160 f8bb 4d2b f43c f179 193c 2650 4ebc
00000230: 0f09 383d 5160 b9b9 631e c23d ac0f 9dbc
00000240: 2a21 03bd 1c73 7cbd bd04 a1bc 06b0 633c
00000250: a787 16bd 8d14 993d 192f 6abc 9922 55bd
00000260: 0abd 07bc 3fc5 12bd 2f6e c63c cf10 2b3c
00000270: d495 95bd 0841 713a 5b3a b63d 5432 643d
00000280: 50f5 54bc 39b0 083e 858c a9bc eb95 a03c
00000290: e3f5 eebc c0e6 ef3d 4905 363c 42b2 57bd
000002a0: 1108 513b 95c5 41bd 8eee 0bbd 209d 433d
000002b0: 2225 61bd e81c 4e38 fde4 52bd 1dce a43c
000002c0: 77a5 0abd e51f a43d ad34 4bbd 1116 b9bd
000002d0: 904a ac3d c883 af3a 39a7 90bb c31a 00bb
000002e0: 320a 41bc 7cb8 0e3c b5a1 da3c 021b 373d
000002f0: 4d94 d03b 71fe 2bbd 7baa 1dbd cb8b 2ebc
00000300: ee76 083d 9bb2 1cbd 3ed0 ac3c a926 da3d
00000310: 677d 5abd 5e3b 12bd 8e8a 23bb b705 bf3d
00000320: ca66 d33c 6347 523b 36a1 933c a74a 87bc
00000330: c81b 27bd 54e6 8e3d 1d36 04be 8669 3d3b
00000340: 0268 3a3c 5df7 a3bd f501 b33c 87af 183c
00000350: 883f 033e fcc5 f0bb 9cfe 5d3c caef 03bc
00000360: 9025 003c 507e 4fbd 95fb 2bbc 0b2f 91bd
00000370: e18a bdbd c782 0c3d 6777 213d afb8 67bd
00000380: 6712 5cbd f173 d83d 158c c9bc f032 babc
00000390: ccd7 2e3e 2432 a13e 75af babb 2fd1 1cbd
000003a0: 2b15 cd3a 7847 513d 2f03 04bd c210 923e
000003b0: 8c94 86bc f235 89bc 03ec 2c3e c227 3c3e
000003c0: 8043 73bd fa54 843e 182e 74bc 70c1 b43b
000003d0: 0b3b 0c3e c237 333d afdc b7bc ad27 58bd
000003e0: 056c a3bc 57a0 c6bd c895 0a3d 0e65 cf3d
000003f0: 9887 50be fd66 2abd 03dd 85be 3c5b 04bd

layer1.0.shortcut.0.bias f4 [32]
0.07836615 -0.20698264 0.17302743 -0.23122357 0.15570188 -0.038015913 -0.14361031 0.33207983
0.5658203 -0.079348035 0.0071362406 -0.083782464 0.15584466 0.39073476 -0.28355205 0.1419354
0.24075867 0.61145234 0.0010800029 -0.1674943 -0.0045800232 -0.037868407 0.030378733 -0.18244307
0.110662416 -0.06213595 -0.01495782 -0.0077006845 -0.0066371756 -0.059522405 -0.13358414 0.08802392
00000000: 6f7e a03d 42f3 53be 1a2e 313e dfc5 6cbe
00000010: 5070 1f3e 93b6 1bbd 950e 13be 5e06 aa3e
00000020: 99d9 103f 3981 a2bd 20d7 e93b 2496 abbd
00000030: be95 1f3e 630e c83e bc2d 91be 8357 113e
00000040: 7189 763e 2488 1c3f e28e 8d3a a083 2bbe
00000050: 0514 96bb e71b 1bbd d2dc f83c 5bd2 3abe
00000060: faa2 e23d 4482 7ebd a511 75bc 0656 fcbb
00000070: aa7c d9bb c4cd 73bd 48ca 08be e345 b43d

layer1.1.conv1.weight f4 [32, 32, 3, 3]
-0.011529108 0.02487413 0.029176934 0.025651772 -0.033817206 0.03283961 -0.034925457 0.031491853
0.029149035 -0.08855528 -0.012720275 0.065262645 0.041235745 0.124777146 0.059953563 0.08253184
0.044854246 -0.047809694 -0.048188757 0.14609703 -0.023743508 0.048310384 0.10371861 -0.13305017
-0.014338623 -0.05269989 -0.18405035 -0.00538532 0.0006052679 0.05478478 -0.027127367 -0.033661146
-0.053393167 0.072725885 0.030431235 -0.035303973 0.06732975 -0.029865386 -0.035268366 -0.037723146
0.093409576 0.07587222 -0.12009905 -0.051806334 -0.09372357 0.04306532 -0.034498222 -0.08047066
0.023210198 0.016088808 -0.024460461 -0.027716037 -0.06723782 -0.01388431 0.023096638 0.09076302
-0.01991934 -0.038358092 -0.023111707 -0.110205345 -0.02762246 0.07627774 0.114443615 0.02186661
0.04018936 0.030083762 0.009521988 0.013393227 -0.030882925 -0.025033468 -0.025425324 -0.0675453
-0.02171295 0.08669399 0.105627194 -0.01965192 0.04698339 0.003754494 -0.08817764 -0.0819118
-0.11940946 0.021142017 0.042127732 0.08961174 -0.012024592 -0.025529126 0.007321605 0.035349593
0.0100127375 0.0014253268 0.016987195 0.060886525 0.07713803 0.07616577 0.037616283 0.035934206
0.05178727 0.10341034 0.15862255 0.109505124 0.0074312114 0.058227345 0.08946541 0.080511205
0.1737945 0.020559328 -0.10077396 -0.055987485 0.08542227 -0.06472129 -0.06282668 -0.0058176843
-0.14724071 -0.05049538 -0.07880757 0.06448786 0.2242702 0.019906888 0.014141149 0.0577748
0.025162444 -0.044919856 -0.023539552 0.068687886 0.008382172 0.025153976 0.03372131 0.015646497
0.066020444 0.09925675 0.052623723 0.030861244 0.0807433 -0.07219797 -0.0922736 -0.02326679
-0.033988446 0.05627005 -0.018185 -0.029107843 -0.04002327 -0.021412665 0.048035383 0.08960936
0.026592068 0.089202575 0.024056982 0.01007025 -0.027906472 -0.0663929 -0.07828246 -0.0481443
-0.06986751 0.013301941 0.13143969 0.12279372 -0.0656435 -0.08737963 -0.14015245 -0.014146793
-0.076632276 -0.095039345 0.0022244868 0.002054908 -0.0023568121 -0.00078795606 -0.002592221 -0.00010254669
-0.00028035152 -0.002559248 -0.0016115371 0.028459392 -0.012504517 -0.007008252 0.009275794 0.01992187
0.04121252 -0.02843614 -0.026932092 0.03550368 0.04662949 -0.1834876 -0.041188125 0.105689436
-0.04807162 -0.10199899 0.13510184 0.024617933 -0.049987186 0.034586914 -0.04126175 -0.002864123
-0.06547238 0.056233082 0.10666093 -0.0083345175 -0.031123795 -0.11575383 -0.03863493 0.016893055
0.014070377 0.07453462 0.06708586 0.050866116 -0.08262287 -0.13851324 -0.10371467 0.004288686
0.019802773 -0.008212722 -0.028553402 0.024628855 0.018007888 -0.02759327 0.065626524 0.04965228
-0.04165859 -0.03422165 0.012361124 0.061261196 0.17034593 0.05860986 -0.03498403 -0.13372189
-0.19340838 0.0085147675 -0.04337909 -0.040151726 -0.10671653 -0.09541633 -0.049402688 0.012055548
0.09999043 0.0918593 0.029081576 0.038302287 0.035829972 0.037173267 -0.0003601805 -0.02863491
-0.052020606 -0.10601604 -0.091138504 0.037122525 3.5445544e-05 -0.0010063587 0.055627916 0.033150274
-0.016411163 -0.054037377 -0.0973106 -0.087615214 0.04113358 -0.05173387 -0.04191801 0.02317568
00000000: 95e4 3cbc d5c4 cb3c 7704 ef3c aa23 d23c
00000010: e983 0abd d482 063d ff0d 0fbd 9afd 003d
00000020: f5c9 ee3c 785c b5bd b368 50bc 6ca8 853d
00000030: d0e6 283d 298b ff3d de91 753d 7406 a93d
00000040: 16b9 373d 19d4 43bd 9361 45bd 769a 153e
00000050: bf81 c2bc 1ce1 453d 6c6a d43d 4e3e 08be
00000060: 8bec 6abc d7db 57bd b277 3cbe 5777 b0bb
00000070: d7aa 1e3a 0166 603d 363a debc 45e0 09bd
00000080: cbb2 5abd 4ff1 943d ed4a f93c e69a 10bd
00000090: 2ee4 893d 41a8 f4bc 9075 10bd 9683 1abd
000000a0: 854d bf3d e562 9b3d 7ef6 f5bd e132 54bd
000000b0: 25f2 bfbd 4365 303d 024e 0dbd cdcd a4bd
000000c0: 5023 be3c adcc 833c 4e61 c8bc be0c e3bc
000000d0: fbb3 89bd 047b 63bc 2935 bd3c f6e1 b93d
000000e0: e22d a3bc 601d 1dbd c354 bdbc 57b3 e1bd
000000f0: 7f48 e2bc 8137 9c3d 6a61 ea3d 9b21 b33c
00000100: 999d 243d 3972 f63c 1d02 1c3c 446f 5b3c
00000110: 30fe fcbc fd12 cdbc c548 d0bc 3155 8abd
00000120: 5bdf b1bc 9e8c b13d 1253 d83d 10fd a0bc
00000130: a871 403d f50d 763b 7b96 b4bd 60c1 a7bd
00000140: f28c f4bd 0632 ad3c 218e 2c3d 5c86 b73d
00000150: cb02 45bc 7522 d1bc 13ea ef3b bcca 103d
00000160: 770c 243c 08d2 ba3a bb28 8b3c 2664 793d
00000170: 8bfa 9d3d cdfc 9b3d 8813 1a3d bf2f 133d
00000180: e31e 543d cdc8 d33d f36d 223e 3944 e03d
00000190: 8581 f33b cc7f 6e3d a439 b73d 0fe3 a43d
000001a0: 2ff7 313e 096c a83c 9462 cebd 2253 65bd
000001b0: dff1 ae3d 988c 84bd 46ab 80bd 46a2 bebb
000001c0: 45c6 16be 3ed4 4ebd dd65 a1bd 3612 843d
000001d0: 16a7 653e c513 a33c 47b0 673c 45a5 6c3d
000001e0: 7821 ce3c e2fd 37bd 05d6 c0bc 3cac 8c3d
000001f0: 6155 093c b60f ce3c 5b1f 0a3d 152d 803c
00000200: ba35 873d 1f47 cb3d f98b 573d b8d0 fc3c
00000210: be5c a53d 87dc 93bd f1f9 bcbd ff99 bebc
00000220: 7837 0bbd 6d7b 663d b6f8 94bc 9273 eebc
00000230: 71ef 23bd 9d69 afbc c0c0 443d 1d85 b73d
00000240: 9cd7 d93c d7af b63d 2613 c53c b1fd 243c
00000250: 1d9c e4bc 00f9 87bd 8e52 a0bd f532 45bd
00000260: b216 8fbd 62f0 593c 2098 063e 467b fb3d
00000270: 1970 86bd 17f4 b2bd 2084 0fbe f3c7 67bc
00000280: 62f1 9cbd fda3 c2bd b2c8 113b a3ab 063b
00000290: bf74 1abb d68e 4eba 40e2 29bb 560e d7b8
000002a0: 25fc 92b9 0eb9 27bb 363a d3ba ac23 e93c
000002b0: bfdf 4cbc 7ba5 e5bb 80f9 173c 3133 a33c
000002c0: 76ce 283d e8f2 e8bc b1a0 dcbc 4f6c 113d
000002d0: 90fe 3e3d 2ce4 3bbe e1b4 28bd b473 d83d
000002e0: bfe6 44bd d9e4 d0bd 2358 0a3e 8cab c93c
000002f0: 5dbf 4cbd 02ab 0d3d 1502 29bd 03b4 3bbb
00000300: 6216 86bd a954 663d 0c71 da3d 808d 08bc
00000310: 54f7 febc 5810 edbd a93f 1ebd 4e63 8a3c
00000320: 7087 663c 9ba5 983d 5064 893d fd58 503d
00000330: 2e36 a9bd 6ad6 0dbe 5b68 d4bd 1b88 8c3b
00000340: 6d39 a23c a78e 06bc d3e8 e9bc 74c2 c93c
00000350: 4785 933c 480b e2bc 3367 863d 3060 4b3d
00000360: 33a2 2abd 002c 0cbd 5086 4a3c 05ed 7a3d
00000370: 2a6f 2e3e e410 703d 6a4b 0fbd 64ee 08be
00000380: d90c 46be 8681 0b3c 46ae 31bd 2376 24bd
00000390: 328e dabd a369 c3bd 795a 4abd a284 453c
000003a0: c8c7 cc3d bb20 bc3d 7c3c ee3c dce2 1c3d
000003b0: 73c2 123d ff42 183d 9cd6 bcb9 c293 eabc
000003c0: 8f13 55bd f01e d9bd d3a6 babd ca0d 183d
000003d0: 5dab 1438 cbe7 83ba 19da 633d 95c8 073d
000003e0: b470 86bc 4c56 5dbd c84a c7bd 9b6f b3bd
000003f0: af7b 283d e5e6 53bd 38b2 2bbd ecda bd3c

layer1.1.conv1.bias f4 [32]
-0.22446474 -0.064808115 -0.0702217 0.047081713 -0.00011737034 0.055585768 -0.21533221 -0.20872204
-0.047460712 -0.07457766 0.10500496 -0.03497362 -0.1483686 -0.09102614 -0.06370792 -0.11215076
-0.28285983 0.084477544 -0.09080617 -0.06501713 -0.11983732 -0.035655368 -0.049709696 -0.015298015
-0.06918528 -0.11402769 -0.063998245 -0.073278286 -0.019250887 0.046101723 -0.049749263 -0.12686895
00000000: 16da 65be 1eba 84bd 65d0 8fbd c1d8 403d
00000010: b924 f6b8 e7ad 633d 0c80 5cbe 3bbb 55be
00000020: 2a66 42bd 2cbc 98bd d70c d73d 8040 0fbd
00000030: f0ed 17be ea6b babd 4c79 82bd 4caf e5bd
00000040: 01d3 90be 9002 ad3d 96f8 b9bd b327 85bd
00000050: 456d f5bd 5d0b 12bd 659c 4bbd 87a4 7abc
00000060: 03b1 8dbd 5987 e9bd 8311 83bd ed12 96bd
00000070: 09b4 9dbc 29d5 3c3d e2c5 4bbd efe9 01be

layer1.1.conv2.weight f4 [32, 32, 3, 3]
-0.051413566 0.0253072 0.011092759 -0.0025219924 -0.0089455005 0.042537313 -0.021167718 -0.036962725
-0.0059817643 -0.070262216 -0.01891828 -0.04306208 -0.08876704 -0.100481965 -0.12654427 -0.077487454
-0.025479563 -0.059671883 0.033911396 0.043511275 -0.030259205 0.08603426 0.064719096 0.04422946
0.062437374 0.011003969 0.045686785 0.047040105 -0.00016081336 -0.027002132 -0.011956575 0.03282612
0.03490318 -0.0064711203 0.020920416 -0.0008924912 0.0678031 0.05341179 0.034549814 0.05374296
0.010807329 0.019110935 0.010127998 -0.0060878173 0.07901928 0.054967497 0.050818708 0.07351918
0.019729989 0.0063036205 0.091707356 0.0020102556 -0.08680615 -0.061971348 0.043143645 0.0031841889
-0.017881934 0.0148089025 0.008609169 -0.0495375 -0.05805044 0.027673585 0.04351424 0.025394257
-0.028396059 -0.0569937 0.02068023 -0.019887822 0.0012728946 -0.060639303 0.057469584 0.076875664
0.020274658 -0.0475045 -0.045766447 0.027130932 -0.022769026 0.011451227 0.022481738 -0.035493974
-0.01651246 0.037177175 0.049077824 0.024351446 0.003649982 0.02065622 0.222202 -0.0572998
0.008311428 0.06255672 -0.034858067 0.109093346 0.053402018 0.051693182 0.16342705 0.2082261
-0.0429701 0.07939804 0.20561005 -0.06061877 -0.043607797 0.01259391 -0.03182869 -0.037375286
-0.019273976 -0.0039638523 0.0010364713 -0.027801806 -0.0052425405 -0.060675435 -0.07573227 0.010551951
-0.06553345 -0.10035569 -0.060826313 -0.023512764 0.016156502 -0.046520703 0.019099412 0.011070617
0.034370568 0.046253096 -0.013886206 0.05740645 0.025045412 0.008617052 0.017157389 0.032992903
0.107825615 0.055326983 0.31332833 0.32817167 0.14855054 0.2083994 0.20801826 0.044537947
0.06101409 0.023715427 0.079038784 -0.026116025 -0.09350641 -0.021914015 -0.0171953 0.06282775
0.001954951 -0.024588402 0.00824803 0.05462016 0.04901121 0.08604813 -0.02097555 0.050714623
0.072984606 0.02221376 0.045145035 0.0889613 0.016678786 -0.0062796874 0.05756303 -0.0049808496
0.031475607 0.10290472 -0.029234514 0.05159811 0.07168014 0.14046264 0.23096126 0.121590585
0.0034047219 0.061037604 0.0752698 -0.11391047 -0.027702166 -0.0036437125 -0.07146491 -0.09471579
0.029849643 0.020236881 0.006784182 0.03462301 0.025009884 0.0020426698 -0.056014173 0.07628756
0.050787028 0.02980112 0.080295235 0.021579837 0.06424032 -0.11860705 -0.153099 -0.17548658
-0.1360702 -0.16138998 -0.18539606 -0.08875632 0.0023404344 -0.060794953 0.037752844 -0.0035611428
-0.008030307 -0.009527221 -0.059479486 -0.029457716 -0.08871427 -0.03944741 0.020891748 1.4918735e-05
0.013923922 0.07345331 -0.057248887 -0.048610907 -0.06288968 -0.046610042 -0.008387617 0.0056131347
-0.049010172 -0.07091969 -0.06810104 -0.03329505 0.014565976 -0.035527438 -0.07795792 0.035124034
-0.013886295 -0.054342348 -0.09503573 -0.059691317 -0.03674143 -0.070421405 -0.050555475 -0.061049882
0.0010434361 0.0039130948 -0.03407724 0.006441359 -0.011722527 0.065612584 0.056612264 0.03958455
-0.045662567 -0.027800461 -0.0055041183 0.0023234703 -0.012716435 -0.003683404 -0.027526872 -0.12408496
-0.020972956 -0.05020388 -0.1012374 -0.062209815 -0.11597485 -0.032438826 -0.06184231 -0.14995655
00000000: 0897 52bd 0c51 cf3c 67be 353c 0348 25bb
00000010: 2690 12bc 9b3b 2e3d ec67 adbc 3a66 17bd
00000020: ad02 c4bb a3e5 8fbd 82fa 9abc dd61 30bd
00000030: 7ecb b5bd 7dc9 cdbd d294 01be beb1 9ebd
00000040: 84ba d0bc 816a 74bd ade6 0a3d e138 323d
00000050: 27e2 f7bc bb32 b03d 728b 843d f329 353d
00000060: 55be 7f3d fe49 343c 1122 3b3d 20ad 403d
00000070: 02a0 28b9 9333 ddbc 83e5 43bc ae74 063d
00000080: a3f6 0e3d b10b d4bb 4b61 ab3c 12f6 69ba
00000090: 5adc 8a3d 52c6 5a3d 1b84 0d3d 9421 5c3d
000000a0: 3911 313c 898e 9c3c e7ef 253c 507c c7bb
000000b0: dcd4 a13d 9925 613d 4727 503d 3991 963d
000000c0: c9a0 a13c 9a8e ce3b 11d1 bb3d 7ebe 033b
000000d0: 6cc7 b1bd abd5 7dbd 64b7 303d d3ad 503b
000000e0: 227d 92bc 0aa1 723c 790d 0d3c d5e7 4abd
000000f0: 4cc6 6dbd b7b3 e23c fd3b 323d 9e07 d03c
00000100: da9e e8bc 3a72 69bd 9669 a93c c9eb a2bc
00000110: 41d7 a63a eb60 78bd 3a65 6b3d fd70 9d3d
00000120: 0a17 a63c 1494 42bd 9975 3bbd b041 de3c
00000130: 1c86 babc ed9d 3b3c 9f2b b83c 2162 11bd
00000140: 2345 87bc 1847 183d d405 493d af7c c73c
00000150: 8934 6f3b 3c37 a93c ec88 633e 32b3 6abd
00000160: a82c 083c bd1d 803d 55c7 0ebd 556c df3d
00000170: 13bc 5a3d 3bbc 533d 6c59 273e 3939 553e
00000180: 6a01 30bd 719b a23d 718b 523e 634b 78bd
00000190: 179e 32bd b056 4e3c cd5e 02bd d416 19bd
000001a0: 75e4 9dbc 34e3 81bb 35da 873a 9dc0 e3bc
000001b0: 9ec9 abbb ce86 78bd 8519 9bbd 17e2 2c3c
000001c0: 6736 86bd 4987 cdbd 0325 79bd d79d c0bc
000001d0: a45a 843c 7e8c 3ebd 5f76 9c3c 8861 353c
000001e0: 27c8 0c3d e373 3d3d f882 63bc 0723 6b3d
000001f0: 092c cd3c 892e 0d3c a78d 8c3c 9123 073d
00000200: add3 dc3d 8c9e 623d 926c a03e 1e06 a83e
00000210: a21d 183e a766 553e bd02 553e 6c6d 363d
00000220: e9e9 793d db46 c23c 16df a13d 46f1 d5bc
00000230: 4a80 bfbd 0585 b3bc 28dd 8cbc d6ab 803d
00000240: a31e 003b 9e6d c9bc bf22 073c 64b9 5f3d
00000250: fbbf 483d 013a b03d ebd4 abbc 23ba 4f3d
00000260: f478 953d a2f9 b53c 00ea 383d 5831 b63d
00000270: f3a1 883c d6c5 cdbb 36c7 6b3d 6536 a3bb
00000280: 91ec 003d b6bf d23d 387d efbc 8a58 533d
00000290: 0acd 923d 70d5 0f3e 1c81 6c3e 7c04 f93d
000002a0: c121 5f3b 9102 7a3d 0e27 9a3d e449 e9bd
000002b0: a7ef e2bc 5acb 6ebb 325c 92bd 5afa c1bd
000002c0: 3d87 f43c d1c7 a53c d84d de3b dbd0 0d3d
000002d0: 87e1 cc3c 50de 053b 1e6f 65bd a73c 9c3d
000002e0: 0f06 503d 7a21 f43c d471 a43d 33c8 b03c
000002f0: 6e90 833d 41e8 f2bd fcc5 1cbe c1b2 33be
00000300: fd55 0bbe 6a43 25be 77d8 3dbe e0c5 b5bd
00000310: f961 193b 2104 79bd baa2 1a3d 1062 69bb
00000320: 8c91 03bc 1018 1cbc c3a0 73bd 4f51 f1bc
00000330: d4af b5bd 9b93 21bd 2c25 ab3c 7b4b 7a37
00000340: 2921 643c b06e 963d cf7d 6abd 3b1c 47bd
00000350: 4ecc 80bd 2cea 3ebd 376c 09bc 63ee b73b
00000360: e4be 48bd 583e 91bd 8f78 8bbd 6460 08bd
00000370: 22a6 6e3c 3885 11bd 67a8 9fbd 38de 0f3d
00000380: 5883 63bc 1596 5ebd 18a2 c2bd e27e 74bd
00000390: 2f7e 16bd 1939 90bd 4213 4fbd 710f 7abd
000003a0: e8c3 883a 6b39 803b 9394 0bbd 0912 d33b
000003b0: d80f 40bc e45f 863d 43e2 673d 6923 223d
000003c0: ac08 3bbd cbbd e3bc e45b b4bb 5d45 183b
000003d0: 9858 50bc 4465 71bb 0980 e1bc 4120 febd
000003e0: 7acf abbc 95a2 4dbd 8e55 cfbd b8cf 7ebd
000003f0: 3984 edbd 93de 04bd 5d4e 7dbd 368e 19be

layer1.1.conv2.bias f4 [32]
-0.21913192 -0.54684395 -0.018506777 -0.13621992 -0.13238065 -0.13685058 -0.28542867 0.20541039
0.14752603 0.23618406 -0.16158882 0.14494398 0.06527307 0.32434648 -0.06959435 -0.19927168
-0.18846871 -0.058723733 -0.04342954 -0.05569547 -0.33556113 -0.10576997 -0.13898441 -0.16023815
-0.12572756 -0.17190987 -0.09932111 -0.1639098 -0.19812071 -0.030275347 -0.37011796 -0.16052552
00000000: 1e64 60be f7fd 0bbf 869b 97bc 3c7d 0bbe
00000010: cb8e 07be 8f22 0cbe b523 92be 1a57 523e
00000020: 1011 173e 3cda 713e 8a77 25be 326c 143e
00000030: e3ad 853d be10 a63e 7c87 8ebd e00d 4cbe
00000040: f1fd 40be 4c88 70bd 2ce3 31bd ef20 64bd
00000050: abce abbe ed9d d8bd ee51 0ebe 7815 24be
00000060: babe 00be 2409 30be de68 cbbd f8d7 27be
00000070: 28e0 4abe 0104 f8bc 1a80 bdbe cd60 24be

layer2.0.conv1.weight f4 [32, 32, 3, 3]
0.09578947 0.133893 0.028232288 0.056616124 0.07475952 0.028497567 0.004326168 0.050042972
-0.035609372 0.05106922 0.07335833 0.0002150995 0.1031234 0.0040978505 0.034842853 0.070342354
0.032270074 0.09100496 -0.042384684 -0.017906956 0.015504551 0.0009687835 -0.0009222644 0.061987888
0.0069275415 0.00091030454 0.0629481 0.00023498655 -0.027763296 -0.034108214 0.0285374 -0.00020569588
0.015378044 -0.053209964 0.005713451 0.0343847 -0.010149553 -0.027237557 -0.014014776 0.006877798
-0.011627146 0.01082165 -0.0072837523 0.042133883 0.032462407 0.061800767 0.102087766 0.03012278
0.11763391 0.07867326 0.07059121 0.061166547 0.08917908 0.02686019 -0.034048993 -0.06283507
-0.03449142 0.0004725982 -0.04216921 -0.033074155 -0.008512356 -0.053640816 -0.0028827637 0.07847197
-0.045869987 -0.03554597 0.012024774 -0.044544753 0.004471366 -0.03068065 -0.013665891 0.09643471
0.043486066 -0.044819135 -0.015814748 -0.08791956 -0.09815474 0.068997845 -0.05857538 -0.016196027
0.10928103 0.035738662 -0.06592641 -0.02260539 -0.011309934 -0.039811596 0.010727279 -0.05011552
-0.04303471 0.02014669 -0.039476667 -0.029572375 -0.016974628 -0.09209565 -0.068209894 -0.021466715
-0.097849615 -0.092721 -0.022045786 0.011702985 -0.018109381 -0.032794382 0.09386214 0.02067689
0.029221216 0.03511951 0.023594523 0.01637715 -0.004835911 -0.02574854 -0.07768334 0.08745207
-0.041578438 -0.08061203 0.019340772 -0.017357908 -0.052191414 0.0090385815 -0.008144821 -0.002061308
0.031513214 0.0012174874 -0.04949523 0.0038602042 -0.039277118 0.0001789976 -0.0061010965 0.010460273
0.007639123 -0.009369212 0.017573692 0.023479085 0.0050598932 0.012653774 -0.009935936 -0.011386861
-0.05440209 -0.07769408 -0.03565594 -0.090103365 -0.08823006 0.0017843617 -0.011696185 -0.047832027
-0.020354027 -0.023328193 0.052855413 -0.008485571 -0.040976968 -0.010761062 0.028731586 0.060685404
-0.017524501 0.036495868 -0.009519951 -0.02836813 -0.00038795592 -0.027117403 0.032906767 -0.031371806
-0.031068632 0.052565448 0.03137509 0.015185925 -0.029140297 -0.016601462 -0.034316793 -0.020685326
-0.023415921 -0.0064329095 0.016268007 -0.03422108 -0.049286157 -0.03160736 -0.07243438 -0.07845487
-0.04926013 -0.043762762 -0.048047684 0.0054066735 0.07843879 0.13050942 0.015164959 0.091511294
0.055969063 -0.06512272 -0.00065715285 -0.11110562 -0.06561337 0.044783887 0.012618918 -0.0021768473
0.0013936376 -0.044043947 -0.07992393 -0.06461827 -0.04604741 -0.038741563 -0.05542076 -6.172401e-05
0.01083565 0.003531116 0.048924666 0.015907735 0.0053089997 0.011509371 -0.043315865 -0.03190725
-0.029494498 -0.029277077 0.015958484 -0.0012124006 0.038408544 -0.016789345 0.036454525 0.031431068
0.05566601 0.09271521 0.03453745 0.03919504 0.015866539 -0.044942457 0.01923876 -0.044798113
-0.07066177 -0.004499489 -0.004609325 -0.00501424 -0.0020339761 0.015412558 -0.017430693 0.044163894
0.045078233 0.056032103 -0.04852653 -0.055685483 -0.010422144 -0.06418217 -0.03786351 -0.0042884825
-0.0330675 -0.025903948 0.031191856 -0.0023972706 -0.011754696 -0.036316026 0.05785924 0.013082834
0.019602507 0.030769534 0.113892615 0.06976747 0.059842348 0.15820138 0.073617816 0.21910101
00000000: 452d c43d 3f1b 093e 6647 e73c 4fe6 673d
00000010: 851b 993d bb73 e93c 87c2 8d3b dcf9 4c3d
00000020: 22db 11bd f52d 513d e43c 963d 558c 6139
00000030: 5c32 d33d 4347 863b 61b7 0e3d a70f 903d
00000040: a02d 043d cf60 ba3d 909b 2dbd 9cb1 92bc
00000050: cd06 7e3c f6f5 7d3a 1ec4 71ba 03e7 7d3d
00000060: 6e00 e33b 81a1 6e3a efea 803d b966 7639
00000070: da6f e3bc 0eb5 0bbd 44c7 e93c 11b0 57b9
00000080: 31f4 7b3c b1f2 59bd e737 bb3b f9d6 0c3d
00000090: 504a 26bc 4c21 dfbc 3b9e 65bc 275f e13b
000000a0: c97f 3ebc 4a4d 313c 8bac eebb 9494 2c3d
000000b0: 4df7 043d cd22 7d3d 6413 d13d 0cc4 f63c
000000c0: 0cea f03d 721f a13d 2092 903d c689 7a3d
000000d0: 86a3 b63d e709 dc3c f576 0bbd acaf 80bd
000000e0: e046 0dbd 0fc7 f739 9fb9 2cbd c478 07bd
000000f0: 6977 0bbc 79b6 5bbd c0ec 3cbb eab5 a03d
00000100: 2be2 3bbd a798 11bd 8f03 453c 8f74 36bd
00000110: 8984 923b fd55 fbbc e7e6 5fbc 907f c53d
00000120: 721e 323d 4594 37bd ee8d 81bc 2c0f b4bd
00000130: 5a05 c9bd be4e 8d3d bdec 6fbd 88ad 84bc
00000140: bcce df3d b462 123d 6d04 87bd f02e b9bc
00000150: 4d4d 39bc 7c11 23bd 78c1 2f3c ee45 4dbd
00000160: 2a45 30bd ac0a a53c 49b2 21bd c441 f2bc
00000170: 600e 8bbc a59c bcbd a1b1 8bbd f7da afbc
00000180: 6165 c8bd 82e4 bdbd 5d99 b4bc e0bd 3f3c
00000190: 205a 94bc 6753 06bd cb3a c03d 9562 a93c
000001a0: 5561 ef3c 7ad9 0f3d 4d49 c13c 5f29 863c
000001b0: 9076 9ebb 9aee d2bc 7118 9fbd 121a b33d
000001c0: 274e 2abd ec17 a5bd 8a70 9e3c 2c32 8ebc
000001d0: aac6 55bd 8f16 143c db71 05bc 0217 07bb
000001e0: 0014 013d 1994 9f3a 83bb 4abd 7bfb 7c3b
000001f0: 0be1 20bd 4db1 3b39 b5eb c7bb 9161 2b3c
00000200: 9c51 fa3b 5381 19bc b4f6 8f3c 3657 c03c
00000210: 76cd a53b c651 4f3c 56ca 22bc f58f 3abc
00000220: bad4 5ebd 131e 9fbd f70b 12bd 1d88 b8bd
00000230: f6b1 b4bd 3ee1 e93a 5ba1 3fbc 84eb 43bd
00000240: 7dbd a6bc c41a bfbc eb7e 583d 1007 0bbc
00000250: 77d7 27bd 2a4f 30bc 815e eb3c 4291 783d
00000260: 8b8f 8fbc b17c 153d 92f9 1bbc 4864 e8bc
00000270: 9066 cbb9 5125 debc 3fc9 063d b97f 00bd
00000280: a583 febc de4e 573d 2b83 003d 63ce 783c
00000290: a2b7 eebc caff 87bc c48f 0cbd 4674 a9bc
000002a0: bfd2 bfbc 28cb d2bb 7c44 853c 672b 0cbd
000002b0: 48e0 49bd b876 01bd 7a58 94bd f2ac a0bd
000002c0: fdc4 49bd 9540 33bd a6cd 44bd 772a b13b
000002d0: 84a4 a03d 43a4 053e 7376 783c 466a bb3d
000002e0: d13f 653d 105f 85bd c844 2cba 588b e3bd
000002f0: 4d60 86bd 4f6f 373d 94bf 4e3c 70a9 0ebb
00000300: b8aa b63a 6d67 34bd 28af a3bd 9556 84bd
00000310: 369c 3cbd 79af 1ebd e100 63bd d371 81b8
00000320: 0388 313c 4c6a 673b 3b65 483d f050 823c
00000330: 1ef7 ad3b cd91 3c3c fa6b 31bd 2db1 02bd
00000340: 729e f1bc 7bd6 efbc 5ebb 823c 6ae9 9eba
00000350: 4752 1d3d cf89 89bc 5751 153d ddbd 003d
00000360: 0b02 643d 79e1 bd3d 2477 0d3d fa8a 203d
00000370: 8bfa 813c 9515 38bd 9b9a 9d3c 3a7e 37bd
00000380: 1eb7 90bd 7370 93bb d209 97bb 7e4e a4bb
00000390: 754c 05bb f484 7c3c d0ca 8ebc 33e5 343d
000003a0: f4a3 383d eb81 653d c1c3 46bd 7616 64bd
000003b0: a4c1 2abc f171 83bd c516 1bbd 6686 8cbb
000003c0: c971 07bd 8434 d4bc 1086 ff3c 871b 1dbb
000003d0: c596 40bc 1dc0 14bd cffd 6c3d 6259 563c
000003e0: 7095 a03c 6410 fc3c 8840 e93d 3fe2 8e3d
000003f0: 401d 753d 8bff 213e f0c4 963d 045c 603e

layer2.0.conv1.bias f4 [32]
-0.07110917 0.065155335 -0.005715642 0.25570002 0.08536583 0.02358818 -0.0074482816 0.1281909
-0.048244335 0.04778827 0.1795367 0.0062008803 0.17923729 -0.020544276 0.19561857 -0.10410865
-0.016680488 0.17974098 -0.05332332 0.064889535 0.00455564 -0.05413942 -0.13486308 -0.053339574
0.16025434 -0.011461172 -0.07220833 -0.06251019 0.16287705 0.036968276 -0.0213714 0.14563708
00000000: afa1 91bd 2970 853d 484a bbbb 1deb 823e
00000010: 48d4 ae3d 003c c13c b710 f4bb 7a44 033e
00000020: da9b 45bd a2bd 433d 78d8 373e c130 cb3b
00000030: fb89 373e 784c a8bc 3c50 483e ea36 d5bd
00000040: 85a5 88bc 050e 383e 8e69 5abd cee4 843d
00000050: 7a47 953b 4cc1 5dbd 8c19 0abe 997a 5abd
00000060: b719 243e a4c7 3bbc f6e1 93bd 5805 80bd
00000070: 3ec9 263e 0c6c 173d 1313 afbc e321 153e
